<?xml version="1.0" ?>
<net name="person-detection-0203" version="10">
	<layers>
		<layer id="0" name="image" type="Parameter" version="opset1">
			<data element_type="f16" shape="1,3,480,864"/>
			<output>
				<port id="0" precision="FP16">
					<dim>1</dim>
					<dim>3</dim>
					<dim>480</dim>
					<dim>864</dim>
				</port>
			</output>
		</layer>
		<layer id="1" name="1258512589_const" type="Const" version="opset1">
			<data element_type="f16" offset="0" shape="" size="2"/>
			<output>
				<port id="0" precision="FP16"/>
			</output>
		</layer>
		<layer id="2" name="1258612590_const" type="Const" version="opset1">
			<data element_type="f16" offset="2" shape="" size="2"/>
			<output>
				<port id="0" precision="FP16"/>
			</output>
		</layer>
		<layer id="3" name="1258712591_const" type="Const" version="opset1">
			<data element_type="f16" offset="0" shape="" size="2"/>
			<output>
				<port id="0" precision="FP16"/>
			</output>
		</layer>
		<layer id="4" name="1258812592_const" type="Const" version="opset1">
			<data element_type="f16" offset="2" shape="" size="2"/>
			<output>
				<port id="0" precision="FP16"/>
			</output>
		</layer>
		<layer id="5" name="370/fq_input_0" type="FakeQuantize" version="opset1">
			<data auto_broadcast="numpy" levels="256"/>
			<input>
				<port id="0">
					<dim>1</dim>
					<dim>3</dim>
					<dim>480</dim>
					<dim>864</dim>
				</port>
				<port id="1"/>
				<port id="2"/>
				<port id="3"/>
				<port id="4"/>
			</input>
			<output>
				<port id="5" precision="FP16">
					<dim>1</dim>
					<dim>3</dim>
					<dim>480</dim>
					<dim>864</dim>
				</port>
			</output>
		</layer>
		<layer id="6" name="image/reverse_input_channels/Concat96487_const302720426/quantized25461_const" type="Const" version="opset1">
			<data element_type="i8" offset="4" shape="32,3,3,3" size="864"/>
			<output>
				<port id="0" precision="I8">
					<dim>32</dim>
					<dim>3</dim>
					<dim>3</dim>
					<dim>3</dim>
				</port>
			</output>
		</layer>
		<layer id="7" name="image/reverse_input_channels/Concat96487_const302720426/quantized/to_f16" type="Convert" version="opset1">
			<data destination_type="f16"/>
			<input>
				<port id="0">
					<dim>32</dim>
					<dim>3</dim>
					<dim>3</dim>
					<dim>3</dim>
				</port>
			</input>
			<output>
				<port id="1" precision="FP16">
					<dim>32</dim>
					<dim>3</dim>
					<dim>3</dim>
					<dim>3</dim>
				</port>
			</output>
		</layer>
		<layer id="8" name="370/fq_weights_1/zero_point25474_const" type="Const" version="opset1">
			<data element_type="f16" offset="868" shape="32,1,1,1" size="64"/>
			<output>
				<port id="0" precision="FP16">
					<dim>32</dim>
					<dim>1</dim>
					<dim>1</dim>
					<dim>1</dim>
				</port>
			</output>
		</layer>
		<layer id="9" name="370/fq_weights_1/minus_zp" type="Subtract" version="opset1">
			<data auto_broadcast="numpy"/>
			<input>
				<port id="0">
					<dim>32</dim>
					<dim>3</dim>
					<dim>3</dim>
					<dim>3</dim>
				</port>
				<port id="1">
					<dim>32</dim>
					<dim>1</dim>
					<dim>1</dim>
					<dim>1</dim>
				</port>
			</input>
			<output>
				<port id="2" precision="FP16">
					<dim>32</dim>
					<dim>3</dim>
					<dim>3</dim>
					<dim>3</dim>
				</port>
			</output>
		</layer>
		<layer id="10" name="370/fq_weights_1/scale25469_const" type="Const" version="opset1">
			<data element_type="f16" offset="932" shape="32,1,1,1" size="64"/>
			<output>
				<port id="0" precision="FP16">
					<dim>32</dim>
					<dim>1</dim>
					<dim>1</dim>
					<dim>1</dim>
				</port>
			</output>
		</layer>
		<layer id="11" name="370/fq_weights_1/mulpiply_by_scale" type="Multiply" version="opset1">
			<data auto_broadcast="numpy"/>
			<input>
				<port id="0">
					<dim>32</dim>
					<dim>3</dim>
					<dim>3</dim>
					<dim>3</dim>
				</port>
				<port id="1">
					<dim>32</dim>
					<dim>1</dim>
					<dim>1</dim>
					<dim>1</dim>
				</port>
			</input>
			<output>
				<port id="2" precision="FP16">
					<dim>32</dim>
					<dim>3</dim>
					<dim>3</dim>
					<dim>3</dim>
				</port>
			</output>
		</layer>
		<layer id="12" name="370" type="Convolution" version="opset1">
			<data auto_pad="explicit" dilations="1,1" pads_begin="1,1" pads_end="1,1" strides="2,2"/>
			<input>
				<port id="0">
					<dim>1</dim>
					<dim>3</dim>
					<dim>480</dim>
					<dim>864</dim>
				</port>
				<port id="1">
					<dim>32</dim>
					<dim>3</dim>
					<dim>3</dim>
					<dim>3</dim>
				</port>
			</input>
			<output>
				<port id="2" precision="FP16">
					<dim>1</dim>
					<dim>32</dim>
					<dim>240</dim>
					<dim>432</dim>
				</port>
			</output>
		</layer>
		<layer id="13" name="data_add_4712148907/EltwiseUnsqueeze49593_const3029_const" type="Const" version="opset1">
			<data element_type="f16" offset="996" shape="1,32,1,1" size="64"/>
			<output>
				<port id="0" precision="FP16">
					<dim>1</dim>
					<dim>32</dim>
					<dim>1</dim>
					<dim>1</dim>
				</port>
			</output>
		</layer>
		<layer id="14" name="371/variance/Fused_Add_" type="Add" version="opset1">
			<data auto_broadcast="numpy"/>
			<input>
				<port id="0">
					<dim>1</dim>
					<dim>32</dim>
					<dim>240</dim>
					<dim>432</dim>
				</port>
				<port id="1">
					<dim>1</dim>
					<dim>32</dim>
					<dim>1</dim>
					<dim>1</dim>
				</port>
			</input>
			<output>
				<port id="2" names="371" precision="FP16">
					<dim>1</dim>
					<dim>32</dim>
					<dim>240</dim>
					<dim>432</dim>
				</port>
			</output>
		</layer>
		<layer id="15" name="372" type="Clamp" version="opset1">
			<data max="6.0" min="0.0"/>
			<input>
				<port id="0">
					<dim>1</dim>
					<dim>32</dim>
					<dim>240</dim>
					<dim>432</dim>
				</port>
			</input>
			<output>
				<port id="1" names="372" precision="FP16">
					<dim>1</dim>
					<dim>32</dim>
					<dim>240</dim>
					<dim>432</dim>
				</port>
			</output>
		</layer>
		<layer id="16" name="1106511069_const" type="Const" version="opset1">
			<data element_type="f16" offset="0" shape="" size="2"/>
			<output>
				<port id="0" precision="FP16"/>
			</output>
		</layer>
		<layer id="17" name="1106611070_const" type="Const" version="opset1">
			<data element_type="f16" offset="1060" shape="" size="2"/>
			<output>
				<port id="0" precision="FP16"/>
			</output>
		</layer>
		<layer id="18" name="1106711071_const" type="Const" version="opset1">
			<data element_type="f16" offset="0" shape="" size="2"/>
			<output>
				<port id="0" precision="FP16"/>
			</output>
		</layer>
		<layer id="19" name="1106811072_const" type="Const" version="opset1">
			<data element_type="f16" offset="1060" shape="" size="2"/>
			<output>
				<port id="0" precision="FP16"/>
			</output>
		</layer>
		<layer id="20" name="373/fq_input_0" type="FakeQuantize" version="opset1">
			<data auto_broadcast="numpy" levels="256"/>
			<input>
				<port id="0">
					<dim>1</dim>
					<dim>32</dim>
					<dim>240</dim>
					<dim>432</dim>
				</port>
				<port id="1"/>
				<port id="2"/>
				<port id="3"/>
				<port id="4"/>
			</input>
			<output>
				<port id="5" precision="FP16">
					<dim>1</dim>
					<dim>32</dim>
					<dim>240</dim>
					<dim>432</dim>
				</port>
			</output>
		</layer>
		<layer id="21" name="374/mean/Fused_Mul_5150751509_const303220428/quantized24573_const" type="Const" version="opset1">
			<data element_type="i8" offset="1062" shape="32,32,1,1" size="1024"/>
			<output>
				<port id="0" precision="I8">
					<dim>32</dim>
					<dim>32</dim>
					<dim>1</dim>
					<dim>1</dim>
				</port>
			</output>
		</layer>
		<layer id="22" name="374/mean/Fused_Mul_5150751509_const303220428/quantized/to_f16" type="Convert" version="opset1">
			<data destination_type="f16"/>
			<input>
				<port id="0">
					<dim>32</dim>
					<dim>32</dim>
					<dim>1</dim>
					<dim>1</dim>
				</port>
			</input>
			<output>
				<port id="1" precision="FP16">
					<dim>32</dim>
					<dim>32</dim>
					<dim>1</dim>
					<dim>1</dim>
				</port>
			</output>
		</layer>
		<layer id="23" name="373/fq_weights_1/zero_point24586_const" type="Const" version="opset1">
			<data element_type="f16" offset="2086" shape="32,1,1,1" size="64"/>
			<output>
				<port id="0" precision="FP16">
					<dim>32</dim>
					<dim>1</dim>
					<dim>1</dim>
					<dim>1</dim>
				</port>
			</output>
		</layer>
		<layer id="24" name="373/fq_weights_1/minus_zp" type="Subtract" version="opset1">
			<data auto_broadcast="numpy"/>
			<input>
				<port id="0">
					<dim>32</dim>
					<dim>32</dim>
					<dim>1</dim>
					<dim>1</dim>
				</port>
				<port id="1">
					<dim>32</dim>
					<dim>1</dim>
					<dim>1</dim>
					<dim>1</dim>
				</port>
			</input>
			<output>
				<port id="2" precision="FP16">
					<dim>32</dim>
					<dim>32</dim>
					<dim>1</dim>
					<dim>1</dim>
				</port>
			</output>
		</layer>
		<layer id="25" name="373/fq_weights_1/scale24581_const" type="Const" version="opset1">
			<data element_type="f16" offset="2150" shape="32,1,1,1" size="64"/>
			<output>
				<port id="0" precision="FP16">
					<dim>32</dim>
					<dim>1</dim>
					<dim>1</dim>
					<dim>1</dim>
				</port>
			</output>
		</layer>
		<layer id="26" name="373/fq_weights_1/mulpiply_by_scale" type="Multiply" version="opset1">
			<data auto_broadcast="numpy"/>
			<input>
				<port id="0">
					<dim>32</dim>
					<dim>32</dim>
					<dim>1</dim>
					<dim>1</dim>
				</port>
				<port id="1">
					<dim>32</dim>
					<dim>1</dim>
					<dim>1</dim>
					<dim>1</dim>
				</port>
			</input>
			<output>
				<port id="2" precision="FP16">
					<dim>32</dim>
					<dim>32</dim>
					<dim>1</dim>
					<dim>1</dim>
				</port>
			</output>
		</layer>
		<layer id="27" name="373" type="Convolution" version="opset1">
			<data auto_pad="explicit" dilations="1,1" pads_begin="0,0" pads_end="0,0" strides="1,1"/>
			<input>
				<port id="0">
					<dim>1</dim>
					<dim>32</dim>
					<dim>240</dim>
					<dim>432</dim>
				</port>
				<port id="1">
					<dim>32</dim>
					<dim>32</dim>
					<dim>1</dim>
					<dim>1</dim>
				</port>
			</input>
			<output>
				<port id="2" precision="FP16">
					<dim>1</dim>
					<dim>32</dim>
					<dim>240</dim>
					<dim>432</dim>
				</port>
			</output>
		</layer>
		<layer id="28" name="data_add_471244712948909/EltwiseUnsqueeze49601_const3034_const" type="Const" version="opset1">
			<data element_type="f16" offset="2214" shape="1,32,1,1" size="64"/>
			<output>
				<port id="0" precision="FP16">
					<dim>1</dim>
					<dim>32</dim>
					<dim>1</dim>
					<dim>1</dim>
				</port>
			</output>
		</layer>
		<layer id="29" name="374/variance/Fused_Add_" type="Add" version="opset1">
			<data auto_broadcast="numpy"/>
			<input>
				<port id="0">
					<dim>1</dim>
					<dim>32</dim>
					<dim>240</dim>
					<dim>432</dim>
				</port>
				<port id="1">
					<dim>1</dim>
					<dim>32</dim>
					<dim>1</dim>
					<dim>1</dim>
				</port>
			</input>
			<output>
				<port id="2" names="374" precision="FP16">
					<dim>1</dim>
					<dim>32</dim>
					<dim>240</dim>
					<dim>432</dim>
				</port>
			</output>
		</layer>
		<layer id="30" name="375" type="Clamp" version="opset1">
			<data max="6.0" min="0.0"/>
			<input>
				<port id="0">
					<dim>1</dim>
					<dim>32</dim>
					<dim>240</dim>
					<dim>432</dim>
				</port>
			</input>
			<output>
				<port id="1" names="375" precision="FP16">
					<dim>1</dim>
					<dim>32</dim>
					<dim>240</dim>
					<dim>432</dim>
				</port>
			</output>
		</layer>
		<layer id="31" name="1170511709_const" type="Const" version="opset1">
			<data element_type="f16" offset="2278" shape="1,32,1,1" size="64"/>
			<output>
				<port id="0" precision="FP16">
					<dim>1</dim>
					<dim>32</dim>
					<dim>1</dim>
					<dim>1</dim>
				</port>
			</output>
		</layer>
		<layer id="32" name="1170611710_const" type="Const" version="opset1">
			<data element_type="f16" offset="2342" shape="1,32,1,1" size="64"/>
			<output>
				<port id="0" precision="FP16">
					<dim>1</dim>
					<dim>32</dim>
					<dim>1</dim>
					<dim>1</dim>
				</port>
			</output>
		</layer>
		<layer id="33" name="1170711711_const" type="Const" version="opset1">
			<data element_type="f16" offset="2278" shape="1,32,1,1" size="64"/>
			<output>
				<port id="0" precision="FP16">
					<dim>1</dim>
					<dim>32</dim>
					<dim>1</dim>
					<dim>1</dim>
				</port>
			</output>
		</layer>
		<layer id="34" name="1170811712_const" type="Const" version="opset1">
			<data element_type="f16" offset="2342" shape="1,32,1,1" size="64"/>
			<output>
				<port id="0" precision="FP16">
					<dim>1</dim>
					<dim>32</dim>
					<dim>1</dim>
					<dim>1</dim>
				</port>
			</output>
		</layer>
		<layer id="35" name="376/fq_input_0" type="FakeQuantize" version="opset1">
			<data auto_broadcast="numpy" levels="256"/>
			<input>
				<port id="0">
					<dim>1</dim>
					<dim>32</dim>
					<dim>240</dim>
					<dim>432</dim>
				</port>
				<port id="1">
					<dim>1</dim>
					<dim>32</dim>
					<dim>1</dim>
					<dim>1</dim>
				</port>
				<port id="2">
					<dim>1</dim>
					<dim>32</dim>
					<dim>1</dim>
					<dim>1</dim>
				</port>
				<port id="3">
					<dim>1</dim>
					<dim>32</dim>
					<dim>1</dim>
					<dim>1</dim>
				</port>
				<port id="4">
					<dim>1</dim>
					<dim>32</dim>
					<dim>1</dim>
					<dim>1</dim>
				</port>
			</input>
			<output>
				<port id="5" precision="FP16">
					<dim>1</dim>
					<dim>32</dim>
					<dim>240</dim>
					<dim>432</dim>
				</port>
			</output>
		</layer>
		<layer id="36" name="101602101605_const303720430/quantized23349_const" type="Const" version="opset1">
			<data element_type="i8" offset="2406" shape="32,1,3,3" size="288"/>
			<output>
				<port id="0" precision="I8">
					<dim>32</dim>
					<dim>1</dim>
					<dim>3</dim>
					<dim>3</dim>
				</port>
			</output>
		</layer>
		<layer id="37" name="101602101605_const303720430/quantized/to_f16" type="Convert" version="opset1">
			<data destination_type="f16"/>
			<input>
				<port id="0">
					<dim>32</dim>
					<dim>1</dim>
					<dim>3</dim>
					<dim>3</dim>
				</port>
			</input>
			<output>
				<port id="1" precision="FP16">
					<dim>32</dim>
					<dim>1</dim>
					<dim>3</dim>
					<dim>3</dim>
				</port>
			</output>
		</layer>
		<layer id="38" name="376/fq_weights_1/zero_point23362_const" type="Const" version="opset1">
			<data element_type="f16" offset="2694" shape="32,1,1,1" size="64"/>
			<output>
				<port id="0" precision="FP16">
					<dim>32</dim>
					<dim>1</dim>
					<dim>1</dim>
					<dim>1</dim>
				</port>
			</output>
		</layer>
		<layer id="39" name="376/fq_weights_1/minus_zp" type="Subtract" version="opset1">
			<data auto_broadcast="numpy"/>
			<input>
				<port id="0">
					<dim>32</dim>
					<dim>1</dim>
					<dim>3</dim>
					<dim>3</dim>
				</port>
				<port id="1">
					<dim>32</dim>
					<dim>1</dim>
					<dim>1</dim>
					<dim>1</dim>
				</port>
			</input>
			<output>
				<port id="2" precision="FP16">
					<dim>32</dim>
					<dim>1</dim>
					<dim>3</dim>
					<dim>3</dim>
				</port>
			</output>
		</layer>
		<layer id="40" name="376/fq_weights_1/scale23357_const" type="Const" version="opset1">
			<data element_type="f16" offset="2758" shape="32,1,1,1" size="64"/>
			<output>
				<port id="0" precision="FP16">
					<dim>32</dim>
					<dim>1</dim>
					<dim>1</dim>
					<dim>1</dim>
				</port>
			</output>
		</layer>
		<layer id="41" name="376/fq_weights_1/mulpiply_by_scale" type="Multiply" version="opset1">
			<data auto_broadcast="numpy"/>
			<input>
				<port id="0">
					<dim>32</dim>
					<dim>1</dim>
					<dim>3</dim>
					<dim>3</dim>
				</port>
				<port id="1">
					<dim>32</dim>
					<dim>1</dim>
					<dim>1</dim>
					<dim>1</dim>
				</port>
			</input>
			<output>
				<port id="2" precision="FP16">
					<dim>32</dim>
					<dim>1</dim>
					<dim>3</dim>
					<dim>3</dim>
				</port>
			</output>
		</layer>
		<layer id="42" name="30970/value30972_const" type="Const" version="opset1">
			<data element_type="i64" offset="2822" shape="5" size="40"/>
			<output>
				<port id="0" precision="I64">
					<dim>5</dim>
				</port>
			</output>
		</layer>
		<layer id="43" name="30970" type="Reshape" version="opset1">
			<data special_zero="true"/>
			<input>
				<port id="0">
					<dim>32</dim>
					<dim>1</dim>
					<dim>3</dim>
					<dim>3</dim>
				</port>
				<port id="1">
					<dim>5</dim>
				</port>
			</input>
			<output>
				<port id="2" precision="FP16">
					<dim>32</dim>
					<dim>1</dim>
					<dim>1</dim>
					<dim>3</dim>
					<dim>3</dim>
				</port>
			</output>
		</layer>
		<layer id="44" name="376" type="GroupConvolution" version="opset1">
			<data auto_pad="explicit" dilations="1,1" pads_begin="1,1" pads_end="1,1" strides="1,1"/>
			<input>
				<port id="0">
					<dim>1</dim>
					<dim>32</dim>
					<dim>240</dim>
					<dim>432</dim>
				</port>
				<port id="1">
					<dim>32</dim>
					<dim>1</dim>
					<dim>1</dim>
					<dim>3</dim>
					<dim>3</dim>
				</port>
			</input>
			<output>
				<port id="2" precision="FP16">
					<dim>1</dim>
					<dim>32</dim>
					<dim>240</dim>
					<dim>432</dim>
				</port>
			</output>
		</layer>
		<layer id="45" name="data_add_471324713748911/EltwiseUnsqueeze49609_const3039_const" type="Const" version="opset1">
			<data element_type="f16" offset="2862" shape="1,32,1,1" size="64"/>
			<output>
				<port id="0" precision="FP16">
					<dim>1</dim>
					<dim>32</dim>
					<dim>1</dim>
					<dim>1</dim>
				</port>
			</output>
		</layer>
		<layer id="46" name="377/variance/Fused_Add_" type="Add" version="opset1">
			<data auto_broadcast="numpy"/>
			<input>
				<port id="0">
					<dim>1</dim>
					<dim>32</dim>
					<dim>240</dim>
					<dim>432</dim>
				</port>
				<port id="1">
					<dim>1</dim>
					<dim>32</dim>
					<dim>1</dim>
					<dim>1</dim>
				</port>
			</input>
			<output>
				<port id="2" names="377" precision="FP16">
					<dim>1</dim>
					<dim>32</dim>
					<dim>240</dim>
					<dim>432</dim>
				</port>
			</output>
		</layer>
		<layer id="47" name="378" type="Clamp" version="opset1">
			<data max="6.0" min="0.0"/>
			<input>
				<port id="0">
					<dim>1</dim>
					<dim>32</dim>
					<dim>240</dim>
					<dim>432</dim>
				</port>
			</input>
			<output>
				<port id="1" names="378" precision="FP16">
					<dim>1</dim>
					<dim>32</dim>
					<dim>240</dim>
					<dim>432</dim>
				</port>
			</output>
		</layer>
		<layer id="48" name="1089510899_const" type="Const" version="opset1">
			<data element_type="f16" offset="0" shape="" size="2"/>
			<output>
				<port id="0" precision="FP16"/>
			</output>
		</layer>
		<layer id="49" name="1089610900_const" type="Const" version="opset1">
			<data element_type="f16" offset="2926" shape="" size="2"/>
			<output>
				<port id="0" precision="FP16"/>
			</output>
		</layer>
		<layer id="50" name="1089710901_const" type="Const" version="opset1">
			<data element_type="f16" offset="0" shape="" size="2"/>
			<output>
				<port id="0" precision="FP16"/>
			</output>
		</layer>
		<layer id="51" name="1089810902_const" type="Const" version="opset1">
			<data element_type="f16" offset="2926" shape="" size="2"/>
			<output>
				<port id="0" precision="FP16"/>
			</output>
		</layer>
		<layer id="52" name="379/fq_input_0" type="FakeQuantize" version="opset1">
			<data auto_broadcast="numpy" levels="256"/>
			<input>
				<port id="0">
					<dim>1</dim>
					<dim>32</dim>
					<dim>240</dim>
					<dim>432</dim>
				</port>
				<port id="1"/>
				<port id="2"/>
				<port id="3"/>
				<port id="4"/>
			</input>
			<output>
				<port id="5" precision="FP16">
					<dim>1</dim>
					<dim>32</dim>
					<dim>240</dim>
					<dim>432</dim>
				</port>
			</output>
		</layer>
		<layer id="53" name="380/mean/Fused_Mul_5151551517_const304220432/quantized25005_const" type="Const" version="opset1">
			<data element_type="i8" offset="2928" shape="16,32,1,1" size="512"/>
			<output>
				<port id="0" precision="I8">
					<dim>16</dim>
					<dim>32</dim>
					<dim>1</dim>
					<dim>1</dim>
				</port>
			</output>
		</layer>
		<layer id="54" name="380/mean/Fused_Mul_5151551517_const304220432/quantized/to_f16" type="Convert" version="opset1">
			<data destination_type="f16"/>
			<input>
				<port id="0">
					<dim>16</dim>
					<dim>32</dim>
					<dim>1</dim>
					<dim>1</dim>
				</port>
			</input>
			<output>
				<port id="1" precision="FP16">
					<dim>16</dim>
					<dim>32</dim>
					<dim>1</dim>
					<dim>1</dim>
				</port>
			</output>
		</layer>
		<layer id="55" name="379/fq_weights_1/zero_point25018_const" type="Const" version="opset1">
			<data element_type="f16" offset="3440" shape="16,1,1,1" size="32"/>
			<output>
				<port id="0" precision="FP16">
					<dim>16</dim>
					<dim>1</dim>
					<dim>1</dim>
					<dim>1</dim>
				</port>
			</output>
		</layer>
		<layer id="56" name="379/fq_weights_1/minus_zp" type="Subtract" version="opset1">
			<data auto_broadcast="numpy"/>
			<input>
				<port id="0">
					<dim>16</dim>
					<dim>32</dim>
					<dim>1</dim>
					<dim>1</dim>
				</port>
				<port id="1">
					<dim>16</dim>
					<dim>1</dim>
					<dim>1</dim>
					<dim>1</dim>
				</port>
			</input>
			<output>
				<port id="2" precision="FP16">
					<dim>16</dim>
					<dim>32</dim>
					<dim>1</dim>
					<dim>1</dim>
				</port>
			</output>
		</layer>
		<layer id="57" name="379/fq_weights_1/scale25013_const" type="Const" version="opset1">
			<data element_type="f16" offset="3472" shape="16,1,1,1" size="32"/>
			<output>
				<port id="0" precision="FP16">
					<dim>16</dim>
					<dim>1</dim>
					<dim>1</dim>
					<dim>1</dim>
				</port>
			</output>
		</layer>
		<layer id="58" name="379/fq_weights_1/mulpiply_by_scale" type="Multiply" version="opset1">
			<data auto_broadcast="numpy"/>
			<input>
				<port id="0">
					<dim>16</dim>
					<dim>32</dim>
					<dim>1</dim>
					<dim>1</dim>
				</port>
				<port id="1">
					<dim>16</dim>
					<dim>1</dim>
					<dim>1</dim>
					<dim>1</dim>
				</port>
			</input>
			<output>
				<port id="2" precision="FP16">
					<dim>16</dim>
					<dim>32</dim>
					<dim>1</dim>
					<dim>1</dim>
				</port>
			</output>
		</layer>
		<layer id="59" name="379" type="Convolution" version="opset1">
			<data auto_pad="explicit" dilations="1,1" pads_begin="0,0" pads_end="0,0" strides="1,1"/>
			<input>
				<port id="0">
					<dim>1</dim>
					<dim>32</dim>
					<dim>240</dim>
					<dim>432</dim>
				</port>
				<port id="1">
					<dim>16</dim>
					<dim>32</dim>
					<dim>1</dim>
					<dim>1</dim>
				</port>
			</input>
			<output>
				<port id="2" precision="FP16">
					<dim>1</dim>
					<dim>16</dim>
					<dim>240</dim>
					<dim>432</dim>
				</port>
			</output>
		</layer>
		<layer id="60" name="data_add_471404714548913/EltwiseUnsqueeze49617_const3044_const" type="Const" version="opset1">
			<data element_type="f16" offset="3504" shape="1,16,1,1" size="32"/>
			<output>
				<port id="0" precision="FP16">
					<dim>1</dim>
					<dim>16</dim>
					<dim>1</dim>
					<dim>1</dim>
				</port>
			</output>
		</layer>
		<layer id="61" name="380/variance/Fused_Add_" type="Add" version="opset1">
			<data auto_broadcast="numpy"/>
			<input>
				<port id="0">
					<dim>1</dim>
					<dim>16</dim>
					<dim>240</dim>
					<dim>432</dim>
				</port>
				<port id="1">
					<dim>1</dim>
					<dim>16</dim>
					<dim>1</dim>
					<dim>1</dim>
				</port>
			</input>
			<output>
				<port id="2" names="380" precision="FP16">
					<dim>1</dim>
					<dim>16</dim>
					<dim>240</dim>
					<dim>432</dim>
				</port>
			</output>
		</layer>
		<layer id="62" name="1301513019_const" type="Const" version="opset1">
			<data element_type="f16" offset="3536" shape="" size="2"/>
			<output>
				<port id="0" precision="FP16"/>
			</output>
		</layer>
		<layer id="63" name="1301613020_const" type="Const" version="opset1">
			<data element_type="f16" offset="3538" shape="" size="2"/>
			<output>
				<port id="0" precision="FP16"/>
			</output>
		</layer>
		<layer id="64" name="1301713021_const" type="Const" version="opset1">
			<data element_type="f16" offset="3536" shape="" size="2"/>
			<output>
				<port id="0" precision="FP16"/>
			</output>
		</layer>
		<layer id="65" name="1301813022_const" type="Const" version="opset1">
			<data element_type="f16" offset="3538" shape="" size="2"/>
			<output>
				<port id="0" precision="FP16"/>
			</output>
		</layer>
		<layer id="66" name="381/fq_input_0" type="FakeQuantize" version="opset1">
			<data auto_broadcast="numpy" levels="256"/>
			<input>
				<port id="0">
					<dim>1</dim>
					<dim>16</dim>
					<dim>240</dim>
					<dim>432</dim>
				</port>
				<port id="1"/>
				<port id="2"/>
				<port id="3"/>
				<port id="4"/>
			</input>
			<output>
				<port id="5" precision="FP16">
					<dim>1</dim>
					<dim>16</dim>
					<dim>240</dim>
					<dim>432</dim>
				</port>
			</output>
		</layer>
		<layer id="67" name="382/mean/Fused_Mul_5151951521_const304620434/quantized23949_const" type="Const" version="opset1">
			<data element_type="i8" offset="3540" shape="96,16,1,1" size="1536"/>
			<output>
				<port id="0" precision="I8">
					<dim>96</dim>
					<dim>16</dim>
					<dim>1</dim>
					<dim>1</dim>
				</port>
			</output>
		</layer>
		<layer id="68" name="382/mean/Fused_Mul_5151951521_const304620434/quantized/to_f16" type="Convert" version="opset1">
			<data destination_type="f16"/>
			<input>
				<port id="0">
					<dim>96</dim>
					<dim>16</dim>
					<dim>1</dim>
					<dim>1</dim>
				</port>
			</input>
			<output>
				<port id="1" precision="FP16">
					<dim>96</dim>
					<dim>16</dim>
					<dim>1</dim>
					<dim>1</dim>
				</port>
			</output>
		</layer>
		<layer id="69" name="381/fq_weights_1/zero_point23962_const" type="Const" version="opset1">
			<data element_type="f16" offset="5076" shape="96,1,1,1" size="192"/>
			<output>
				<port id="0" precision="FP16">
					<dim>96</dim>
					<dim>1</dim>
					<dim>1</dim>
					<dim>1</dim>
				</port>
			</output>
		</layer>
		<layer id="70" name="381/fq_weights_1/minus_zp" type="Subtract" version="opset1">
			<data auto_broadcast="numpy"/>
			<input>
				<port id="0">
					<dim>96</dim>
					<dim>16</dim>
					<dim>1</dim>
					<dim>1</dim>
				</port>
				<port id="1">
					<dim>96</dim>
					<dim>1</dim>
					<dim>1</dim>
					<dim>1</dim>
				</port>
			</input>
			<output>
				<port id="2" precision="FP16">
					<dim>96</dim>
					<dim>16</dim>
					<dim>1</dim>
					<dim>1</dim>
				</port>
			</output>
		</layer>
		<layer id="71" name="381/fq_weights_1/scale23957_const" type="Const" version="opset1">
			<data element_type="f16" offset="5268" shape="96,1,1,1" size="192"/>
			<output>
				<port id="0" precision="FP16">
					<dim>96</dim>
					<dim>1</dim>
					<dim>1</dim>
					<dim>1</dim>
				</port>
			</output>
		</layer>
		<layer id="72" name="381/fq_weights_1/mulpiply_by_scale" type="Multiply" version="opset1">
			<data auto_broadcast="numpy"/>
			<input>
				<port id="0">
					<dim>96</dim>
					<dim>16</dim>
					<dim>1</dim>
					<dim>1</dim>
				</port>
				<port id="1">
					<dim>96</dim>
					<dim>1</dim>
					<dim>1</dim>
					<dim>1</dim>
				</port>
			</input>
			<output>
				<port id="2" precision="FP16">
					<dim>96</dim>
					<dim>16</dim>
					<dim>1</dim>
					<dim>1</dim>
				</port>
			</output>
		</layer>
		<layer id="73" name="381" type="Convolution" version="opset1">
			<data auto_pad="explicit" dilations="1,1" pads_begin="0,0" pads_end="0,0" strides="1,1"/>
			<input>
				<port id="0">
					<dim>1</dim>
					<dim>16</dim>
					<dim>240</dim>
					<dim>432</dim>
				</port>
				<port id="1">
					<dim>96</dim>
					<dim>16</dim>
					<dim>1</dim>
					<dim>1</dim>
				</port>
			</input>
			<output>
				<port id="2" precision="FP16">
					<dim>1</dim>
					<dim>96</dim>
					<dim>240</dim>
					<dim>432</dim>
				</port>
			</output>
		</layer>
		<layer id="74" name="data_add_471484715348915/EltwiseUnsqueeze49625_const3048_const" type="Const" version="opset1">
			<data element_type="f16" offset="5460" shape="1,96,1,1" size="192"/>
			<output>
				<port id="0" precision="FP16">
					<dim>1</dim>
					<dim>96</dim>
					<dim>1</dim>
					<dim>1</dim>
				</port>
			</output>
		</layer>
		<layer id="75" name="382/variance/Fused_Add_" type="Add" version="opset1">
			<data auto_broadcast="numpy"/>
			<input>
				<port id="0">
					<dim>1</dim>
					<dim>96</dim>
					<dim>240</dim>
					<dim>432</dim>
				</port>
				<port id="1">
					<dim>1</dim>
					<dim>96</dim>
					<dim>1</dim>
					<dim>1</dim>
				</port>
			</input>
			<output>
				<port id="2" names="382" precision="FP16">
					<dim>1</dim>
					<dim>96</dim>
					<dim>240</dim>
					<dim>432</dim>
				</port>
			</output>
		</layer>
		<layer id="76" name="383" type="Clamp" version="opset1">
			<data max="6.0" min="0.0"/>
			<input>
				<port id="0">
					<dim>1</dim>
					<dim>96</dim>
					<dim>240</dim>
					<dim>432</dim>
				</port>
			</input>
			<output>
				<port id="1" names="383" precision="FP16">
					<dim>1</dim>
					<dim>96</dim>
					<dim>240</dim>
					<dim>432</dim>
				</port>
			</output>
		</layer>
		<layer id="77" name="1188511889_const" type="Const" version="opset1">
			<data element_type="f16" offset="5652" shape="1,96,1,1" size="192"/>
			<output>
				<port id="0" precision="FP16">
					<dim>1</dim>
					<dim>96</dim>
					<dim>1</dim>
					<dim>1</dim>
				</port>
			</output>
		</layer>
		<layer id="78" name="1188611890_const" type="Const" version="opset1">
			<data element_type="f16" offset="5844" shape="1,96,1,1" size="192"/>
			<output>
				<port id="0" precision="FP16">
					<dim>1</dim>
					<dim>96</dim>
					<dim>1</dim>
					<dim>1</dim>
				</port>
			</output>
		</layer>
		<layer id="79" name="1188711891_const" type="Const" version="opset1">
			<data element_type="f16" offset="5652" shape="1,96,1,1" size="192"/>
			<output>
				<port id="0" precision="FP16">
					<dim>1</dim>
					<dim>96</dim>
					<dim>1</dim>
					<dim>1</dim>
				</port>
			</output>
		</layer>
		<layer id="80" name="1188811892_const" type="Const" version="opset1">
			<data element_type="f16" offset="5844" shape="1,96,1,1" size="192"/>
			<output>
				<port id="0" precision="FP16">
					<dim>1</dim>
					<dim>96</dim>
					<dim>1</dim>
					<dim>1</dim>
				</port>
			</output>
		</layer>
		<layer id="81" name="384/fq_input_0" type="FakeQuantize" version="opset1">
			<data auto_broadcast="numpy" levels="256"/>
			<input>
				<port id="0">
					<dim>1</dim>
					<dim>96</dim>
					<dim>240</dim>
					<dim>432</dim>
				</port>
				<port id="1">
					<dim>1</dim>
					<dim>96</dim>
					<dim>1</dim>
					<dim>1</dim>
				</port>
				<port id="2">
					<dim>1</dim>
					<dim>96</dim>
					<dim>1</dim>
					<dim>1</dim>
				</port>
				<port id="3">
					<dim>1</dim>
					<dim>96</dim>
					<dim>1</dim>
					<dim>1</dim>
				</port>
				<port id="4">
					<dim>1</dim>
					<dim>96</dim>
					<dim>1</dim>
					<dim>1</dim>
				</port>
			</input>
			<output>
				<port id="5" precision="FP16">
					<dim>1</dim>
					<dim>96</dim>
					<dim>240</dim>
					<dim>432</dim>
				</port>
			</output>
		</layer>
		<layer id="82" name="101642101645_const305120436/quantized24141_const" type="Const" version="opset1">
			<data element_type="i8" offset="6036" shape="96,1,3,3" size="864"/>
			<output>
				<port id="0" precision="I8">
					<dim>96</dim>
					<dim>1</dim>
					<dim>3</dim>
					<dim>3</dim>
				</port>
			</output>
		</layer>
		<layer id="83" name="101642101645_const305120436/quantized/to_f16" type="Convert" version="opset1">
			<data destination_type="f16"/>
			<input>
				<port id="0">
					<dim>96</dim>
					<dim>1</dim>
					<dim>3</dim>
					<dim>3</dim>
				</port>
			</input>
			<output>
				<port id="1" precision="FP16">
					<dim>96</dim>
					<dim>1</dim>
					<dim>3</dim>
					<dim>3</dim>
				</port>
			</output>
		</layer>
		<layer id="84" name="384/fq_weights_1/zero_point24154_const" type="Const" version="opset1">
			<data element_type="f16" offset="6900" shape="96,1,1,1" size="192"/>
			<output>
				<port id="0" precision="FP16">
					<dim>96</dim>
					<dim>1</dim>
					<dim>1</dim>
					<dim>1</dim>
				</port>
			</output>
		</layer>
		<layer id="85" name="384/fq_weights_1/minus_zp" type="Subtract" version="opset1">
			<data auto_broadcast="numpy"/>
			<input>
				<port id="0">
					<dim>96</dim>
					<dim>1</dim>
					<dim>3</dim>
					<dim>3</dim>
				</port>
				<port id="1">
					<dim>96</dim>
					<dim>1</dim>
					<dim>1</dim>
					<dim>1</dim>
				</port>
			</input>
			<output>
				<port id="2" precision="FP16">
					<dim>96</dim>
					<dim>1</dim>
					<dim>3</dim>
					<dim>3</dim>
				</port>
			</output>
		</layer>
		<layer id="86" name="384/fq_weights_1/scale24149_const" type="Const" version="opset1">
			<data element_type="f16" offset="7092" shape="96,1,1,1" size="192"/>
			<output>
				<port id="0" precision="FP16">
					<dim>96</dim>
					<dim>1</dim>
					<dim>1</dim>
					<dim>1</dim>
				</port>
			</output>
		</layer>
		<layer id="87" name="384/fq_weights_1/mulpiply_by_scale" type="Multiply" version="opset1">
			<data auto_broadcast="numpy"/>
			<input>
				<port id="0">
					<dim>96</dim>
					<dim>1</dim>
					<dim>3</dim>
					<dim>3</dim>
				</port>
				<port id="1">
					<dim>96</dim>
					<dim>1</dim>
					<dim>1</dim>
					<dim>1</dim>
				</port>
			</input>
			<output>
				<port id="2" precision="FP16">
					<dim>96</dim>
					<dim>1</dim>
					<dim>3</dim>
					<dim>3</dim>
				</port>
			</output>
		</layer>
		<layer id="88" name="30974/value30976_const" type="Const" version="opset1">
			<data element_type="i64" offset="7284" shape="5" size="40"/>
			<output>
				<port id="0" precision="I64">
					<dim>5</dim>
				</port>
			</output>
		</layer>
		<layer id="89" name="30974" type="Reshape" version="opset1">
			<data special_zero="true"/>
			<input>
				<port id="0">
					<dim>96</dim>
					<dim>1</dim>
					<dim>3</dim>
					<dim>3</dim>
				</port>
				<port id="1">
					<dim>5</dim>
				</port>
			</input>
			<output>
				<port id="2" precision="FP16">
					<dim>96</dim>
					<dim>1</dim>
					<dim>1</dim>
					<dim>3</dim>
					<dim>3</dim>
				</port>
			</output>
		</layer>
		<layer id="90" name="384" type="GroupConvolution" version="opset1">
			<data auto_pad="explicit" dilations="1,1" pads_begin="1,1" pads_end="1,1" strides="2,2"/>
			<input>
				<port id="0">
					<dim>1</dim>
					<dim>96</dim>
					<dim>240</dim>
					<dim>432</dim>
				</port>
				<port id="1">
					<dim>96</dim>
					<dim>1</dim>
					<dim>1</dim>
					<dim>3</dim>
					<dim>3</dim>
				</port>
			</input>
			<output>
				<port id="2" precision="FP16">
					<dim>1</dim>
					<dim>96</dim>
					<dim>120</dim>
					<dim>216</dim>
				</port>
			</output>
		</layer>
		<layer id="91" name="data_add_471564716148917/EltwiseUnsqueeze49633_const3053_const" type="Const" version="opset1">
			<data element_type="f16" offset="7324" shape="1,96,1,1" size="192"/>
			<output>
				<port id="0" precision="FP16">
					<dim>1</dim>
					<dim>96</dim>
					<dim>1</dim>
					<dim>1</dim>
				</port>
			</output>
		</layer>
		<layer id="92" name="385/variance/Fused_Add_" type="Add" version="opset1">
			<data auto_broadcast="numpy"/>
			<input>
				<port id="0">
					<dim>1</dim>
					<dim>96</dim>
					<dim>120</dim>
					<dim>216</dim>
				</port>
				<port id="1">
					<dim>1</dim>
					<dim>96</dim>
					<dim>1</dim>
					<dim>1</dim>
				</port>
			</input>
			<output>
				<port id="2" names="385" precision="FP16">
					<dim>1</dim>
					<dim>96</dim>
					<dim>120</dim>
					<dim>216</dim>
				</port>
			</output>
		</layer>
		<layer id="93" name="386" type="Clamp" version="opset1">
			<data max="6.0" min="0.0"/>
			<input>
				<port id="0">
					<dim>1</dim>
					<dim>96</dim>
					<dim>120</dim>
					<dim>216</dim>
				</port>
			</input>
			<output>
				<port id="1" names="386" precision="FP16">
					<dim>1</dim>
					<dim>96</dim>
					<dim>120</dim>
					<dim>216</dim>
				</port>
			</output>
		</layer>
		<layer id="94" name="1100511009_const" type="Const" version="opset1">
			<data element_type="f16" offset="0" shape="" size="2"/>
			<output>
				<port id="0" precision="FP16"/>
			</output>
		</layer>
		<layer id="95" name="1100611010_const" type="Const" version="opset1">
			<data element_type="f16" offset="7516" shape="" size="2"/>
			<output>
				<port id="0" precision="FP16"/>
			</output>
		</layer>
		<layer id="96" name="1100711011_const" type="Const" version="opset1">
			<data element_type="f16" offset="0" shape="" size="2"/>
			<output>
				<port id="0" precision="FP16"/>
			</output>
		</layer>
		<layer id="97" name="1100811012_const" type="Const" version="opset1">
			<data element_type="f16" offset="7516" shape="" size="2"/>
			<output>
				<port id="0" precision="FP16"/>
			</output>
		</layer>
		<layer id="98" name="387/fq_input_0" type="FakeQuantize" version="opset1">
			<data auto_broadcast="numpy" levels="256"/>
			<input>
				<port id="0">
					<dim>1</dim>
					<dim>96</dim>
					<dim>120</dim>
					<dim>216</dim>
				</port>
				<port id="1"/>
				<port id="2"/>
				<port id="3"/>
				<port id="4"/>
			</input>
			<output>
				<port id="5" precision="FP16">
					<dim>1</dim>
					<dim>96</dim>
					<dim>120</dim>
					<dim>216</dim>
				</port>
			</output>
		</layer>
		<layer id="99" name="388/mean/Fused_Mul_5152751529_const305620438/quantized23901_const" type="Const" version="opset1">
			<data element_type="i8" offset="7518" shape="24,96,1,1" size="2304"/>
			<output>
				<port id="0" precision="I8">
					<dim>24</dim>
					<dim>96</dim>
					<dim>1</dim>
					<dim>1</dim>
				</port>
			</output>
		</layer>
		<layer id="100" name="388/mean/Fused_Mul_5152751529_const305620438/quantized/to_f16" type="Convert" version="opset1">
			<data destination_type="f16"/>
			<input>
				<port id="0">
					<dim>24</dim>
					<dim>96</dim>
					<dim>1</dim>
					<dim>1</dim>
				</port>
			</input>
			<output>
				<port id="1" precision="FP16">
					<dim>24</dim>
					<dim>96</dim>
					<dim>1</dim>
					<dim>1</dim>
				</port>
			</output>
		</layer>
		<layer id="101" name="387/fq_weights_1/zero_point23914_const" type="Const" version="opset1">
			<data element_type="f16" offset="9822" shape="24,1,1,1" size="48"/>
			<output>
				<port id="0" precision="FP16">
					<dim>24</dim>
					<dim>1</dim>
					<dim>1</dim>
					<dim>1</dim>
				</port>
			</output>
		</layer>
		<layer id="102" name="387/fq_weights_1/minus_zp" type="Subtract" version="opset1">
			<data auto_broadcast="numpy"/>
			<input>
				<port id="0">
					<dim>24</dim>
					<dim>96</dim>
					<dim>1</dim>
					<dim>1</dim>
				</port>
				<port id="1">
					<dim>24</dim>
					<dim>1</dim>
					<dim>1</dim>
					<dim>1</dim>
				</port>
			</input>
			<output>
				<port id="2" precision="FP16">
					<dim>24</dim>
					<dim>96</dim>
					<dim>1</dim>
					<dim>1</dim>
				</port>
			</output>
		</layer>
		<layer id="103" name="387/fq_weights_1/scale23909_const" type="Const" version="opset1">
			<data element_type="f16" offset="9870" shape="24,1,1,1" size="48"/>
			<output>
				<port id="0" precision="FP16">
					<dim>24</dim>
					<dim>1</dim>
					<dim>1</dim>
					<dim>1</dim>
				</port>
			</output>
		</layer>
		<layer id="104" name="387/fq_weights_1/mulpiply_by_scale" type="Multiply" version="opset1">
			<data auto_broadcast="numpy"/>
			<input>
				<port id="0">
					<dim>24</dim>
					<dim>96</dim>
					<dim>1</dim>
					<dim>1</dim>
				</port>
				<port id="1">
					<dim>24</dim>
					<dim>1</dim>
					<dim>1</dim>
					<dim>1</dim>
				</port>
			</input>
			<output>
				<port id="2" precision="FP16">
					<dim>24</dim>
					<dim>96</dim>
					<dim>1</dim>
					<dim>1</dim>
				</port>
			</output>
		</layer>
		<layer id="105" name="387" type="Convolution" version="opset1">
			<data auto_pad="explicit" dilations="1,1" pads_begin="0,0" pads_end="0,0" strides="1,1"/>
			<input>
				<port id="0">
					<dim>1</dim>
					<dim>96</dim>
					<dim>120</dim>
					<dim>216</dim>
				</port>
				<port id="1">
					<dim>24</dim>
					<dim>96</dim>
					<dim>1</dim>
					<dim>1</dim>
				</port>
			</input>
			<output>
				<port id="2" precision="FP16">
					<dim>1</dim>
					<dim>24</dim>
					<dim>120</dim>
					<dim>216</dim>
				</port>
			</output>
		</layer>
		<layer id="106" name="data_add_471644716948919/EltwiseUnsqueeze49641_const3058_const" type="Const" version="opset1">
			<data element_type="f16" offset="9918" shape="1,24,1,1" size="48"/>
			<output>
				<port id="0" precision="FP16">
					<dim>1</dim>
					<dim>24</dim>
					<dim>1</dim>
					<dim>1</dim>
				</port>
			</output>
		</layer>
		<layer id="107" name="388/variance/Fused_Add_" type="Add" version="opset1">
			<data auto_broadcast="numpy"/>
			<input>
				<port id="0">
					<dim>1</dim>
					<dim>24</dim>
					<dim>120</dim>
					<dim>216</dim>
				</port>
				<port id="1">
					<dim>1</dim>
					<dim>24</dim>
					<dim>1</dim>
					<dim>1</dim>
				</port>
			</input>
			<output>
				<port id="2" names="388" precision="FP16">
					<dim>1</dim>
					<dim>24</dim>
					<dim>120</dim>
					<dim>216</dim>
				</port>
			</output>
		</layer>
		<layer id="108" name="1132511329_const" type="Const" version="opset1">
			<data element_type="f16" offset="9966" shape="" size="2"/>
			<output>
				<port id="0" precision="FP16"/>
			</output>
		</layer>
		<layer id="109" name="1132611330_const" type="Const" version="opset1">
			<data element_type="f16" offset="9968" shape="" size="2"/>
			<output>
				<port id="0" precision="FP16"/>
			</output>
		</layer>
		<layer id="110" name="1132711331_const" type="Const" version="opset1">
			<data element_type="f16" offset="9966" shape="" size="2"/>
			<output>
				<port id="0" precision="FP16"/>
			</output>
		</layer>
		<layer id="111" name="1132811332_const" type="Const" version="opset1">
			<data element_type="f16" offset="9968" shape="" size="2"/>
			<output>
				<port id="0" precision="FP16"/>
			</output>
		</layer>
		<layer id="112" name="389/fq_input_0" type="FakeQuantize" version="opset1">
			<data auto_broadcast="numpy" levels="256"/>
			<input>
				<port id="0">
					<dim>1</dim>
					<dim>24</dim>
					<dim>120</dim>
					<dim>216</dim>
				</port>
				<port id="1"/>
				<port id="2"/>
				<port id="3"/>
				<port id="4"/>
			</input>
			<output>
				<port id="5" precision="FP16">
					<dim>1</dim>
					<dim>24</dim>
					<dim>120</dim>
					<dim>216</dim>
				</port>
			</output>
		</layer>
		<layer id="113" name="390/mean/Fused_Mul_5153151533_const306020440/quantized25509_const" type="Const" version="opset1">
			<data element_type="i8" offset="9970" shape="144,24,1,1" size="3456"/>
			<output>
				<port id="0" precision="I8">
					<dim>144</dim>
					<dim>24</dim>
					<dim>1</dim>
					<dim>1</dim>
				</port>
			</output>
		</layer>
		<layer id="114" name="390/mean/Fused_Mul_5153151533_const306020440/quantized/to_f16" type="Convert" version="opset1">
			<data destination_type="f16"/>
			<input>
				<port id="0">
					<dim>144</dim>
					<dim>24</dim>
					<dim>1</dim>
					<dim>1</dim>
				</port>
			</input>
			<output>
				<port id="1" precision="FP16">
					<dim>144</dim>
					<dim>24</dim>
					<dim>1</dim>
					<dim>1</dim>
				</port>
			</output>
		</layer>
		<layer id="115" name="389/fq_weights_1/zero_point25522_const" type="Const" version="opset1">
			<data element_type="f16" offset="13426" shape="144,1,1,1" size="288"/>
			<output>
				<port id="0" precision="FP16">
					<dim>144</dim>
					<dim>1</dim>
					<dim>1</dim>
					<dim>1</dim>
				</port>
			</output>
		</layer>
		<layer id="116" name="389/fq_weights_1/minus_zp" type="Subtract" version="opset1">
			<data auto_broadcast="numpy"/>
			<input>
				<port id="0">
					<dim>144</dim>
					<dim>24</dim>
					<dim>1</dim>
					<dim>1</dim>
				</port>
				<port id="1">
					<dim>144</dim>
					<dim>1</dim>
					<dim>1</dim>
					<dim>1</dim>
				</port>
			</input>
			<output>
				<port id="2" precision="FP16">
					<dim>144</dim>
					<dim>24</dim>
					<dim>1</dim>
					<dim>1</dim>
				</port>
			</output>
		</layer>
		<layer id="117" name="389/fq_weights_1/scale25517_const" type="Const" version="opset1">
			<data element_type="f16" offset="13714" shape="144,1,1,1" size="288"/>
			<output>
				<port id="0" precision="FP16">
					<dim>144</dim>
					<dim>1</dim>
					<dim>1</dim>
					<dim>1</dim>
				</port>
			</output>
		</layer>
		<layer id="118" name="389/fq_weights_1/mulpiply_by_scale" type="Multiply" version="opset1">
			<data auto_broadcast="numpy"/>
			<input>
				<port id="0">
					<dim>144</dim>
					<dim>24</dim>
					<dim>1</dim>
					<dim>1</dim>
				</port>
				<port id="1">
					<dim>144</dim>
					<dim>1</dim>
					<dim>1</dim>
					<dim>1</dim>
				</port>
			</input>
			<output>
				<port id="2" precision="FP16">
					<dim>144</dim>
					<dim>24</dim>
					<dim>1</dim>
					<dim>1</dim>
				</port>
			</output>
		</layer>
		<layer id="119" name="389" type="Convolution" version="opset1">
			<data auto_pad="explicit" dilations="1,1" pads_begin="0,0" pads_end="0,0" strides="1,1"/>
			<input>
				<port id="0">
					<dim>1</dim>
					<dim>24</dim>
					<dim>120</dim>
					<dim>216</dim>
				</port>
				<port id="1">
					<dim>144</dim>
					<dim>24</dim>
					<dim>1</dim>
					<dim>1</dim>
				</port>
			</input>
			<output>
				<port id="2" precision="FP16">
					<dim>1</dim>
					<dim>144</dim>
					<dim>120</dim>
					<dim>216</dim>
				</port>
			</output>
		</layer>
		<layer id="120" name="data_add_471724717748921/EltwiseUnsqueeze49649_const3062_const" type="Const" version="opset1">
			<data element_type="f16" offset="14002" shape="1,144,1,1" size="288"/>
			<output>
				<port id="0" precision="FP16">
					<dim>1</dim>
					<dim>144</dim>
					<dim>1</dim>
					<dim>1</dim>
				</port>
			</output>
		</layer>
		<layer id="121" name="390/variance/Fused_Add_" type="Add" version="opset1">
			<data auto_broadcast="numpy"/>
			<input>
				<port id="0">
					<dim>1</dim>
					<dim>144</dim>
					<dim>120</dim>
					<dim>216</dim>
				</port>
				<port id="1">
					<dim>1</dim>
					<dim>144</dim>
					<dim>1</dim>
					<dim>1</dim>
				</port>
			</input>
			<output>
				<port id="2" names="390" precision="FP16">
					<dim>1</dim>
					<dim>144</dim>
					<dim>120</dim>
					<dim>216</dim>
				</port>
			</output>
		</layer>
		<layer id="122" name="391" type="Clamp" version="opset1">
			<data max="6.0" min="0.0"/>
			<input>
				<port id="0">
					<dim>1</dim>
					<dim>144</dim>
					<dim>120</dim>
					<dim>216</dim>
				</port>
			</input>
			<output>
				<port id="1" names="391" precision="FP16">
					<dim>1</dim>
					<dim>144</dim>
					<dim>120</dim>
					<dim>216</dim>
				</port>
			</output>
		</layer>
		<layer id="123" name="1282512829_const" type="Const" version="opset1">
			<data element_type="f16" offset="14290" shape="1,144,1,1" size="288"/>
			<output>
				<port id="0" precision="FP16">
					<dim>1</dim>
					<dim>144</dim>
					<dim>1</dim>
					<dim>1</dim>
				</port>
			</output>
		</layer>
		<layer id="124" name="1282612830_const" type="Const" version="opset1">
			<data element_type="f16" offset="14578" shape="1,144,1,1" size="288"/>
			<output>
				<port id="0" precision="FP16">
					<dim>1</dim>
					<dim>144</dim>
					<dim>1</dim>
					<dim>1</dim>
				</port>
			</output>
		</layer>
		<layer id="125" name="1282712831_const" type="Const" version="opset1">
			<data element_type="f16" offset="14290" shape="1,144,1,1" size="288"/>
			<output>
				<port id="0" precision="FP16">
					<dim>1</dim>
					<dim>144</dim>
					<dim>1</dim>
					<dim>1</dim>
				</port>
			</output>
		</layer>
		<layer id="126" name="1282812832_const" type="Const" version="opset1">
			<data element_type="f16" offset="14578" shape="1,144,1,1" size="288"/>
			<output>
				<port id="0" precision="FP16">
					<dim>1</dim>
					<dim>144</dim>
					<dim>1</dim>
					<dim>1</dim>
				</port>
			</output>
		</layer>
		<layer id="127" name="392/fq_input_0" type="FakeQuantize" version="opset1">
			<data auto_broadcast="numpy" levels="256"/>
			<input>
				<port id="0">
					<dim>1</dim>
					<dim>144</dim>
					<dim>120</dim>
					<dim>216</dim>
				</port>
				<port id="1">
					<dim>1</dim>
					<dim>144</dim>
					<dim>1</dim>
					<dim>1</dim>
				</port>
				<port id="2">
					<dim>1</dim>
					<dim>144</dim>
					<dim>1</dim>
					<dim>1</dim>
				</port>
				<port id="3">
					<dim>1</dim>
					<dim>144</dim>
					<dim>1</dim>
					<dim>1</dim>
				</port>
				<port id="4">
					<dim>1</dim>
					<dim>144</dim>
					<dim>1</dim>
					<dim>1</dim>
				</port>
			</input>
			<output>
				<port id="5" precision="FP16">
					<dim>1</dim>
					<dim>144</dim>
					<dim>120</dim>
					<dim>216</dim>
				</port>
			</output>
		</layer>
		<layer id="128" name="101650101653_const306520442/quantized23997_const" type="Const" version="opset1">
			<data element_type="i8" offset="14866" shape="144,1,3,3" size="1296"/>
			<output>
				<port id="0" precision="I8">
					<dim>144</dim>
					<dim>1</dim>
					<dim>3</dim>
					<dim>3</dim>
				</port>
			</output>
		</layer>
		<layer id="129" name="101650101653_const306520442/quantized/to_f16" type="Convert" version="opset1">
			<data destination_type="f16"/>
			<input>
				<port id="0">
					<dim>144</dim>
					<dim>1</dim>
					<dim>3</dim>
					<dim>3</dim>
				</port>
			</input>
			<output>
				<port id="1" precision="FP16">
					<dim>144</dim>
					<dim>1</dim>
					<dim>3</dim>
					<dim>3</dim>
				</port>
			</output>
		</layer>
		<layer id="130" name="392/fq_weights_1/zero_point24010_const" type="Const" version="opset1">
			<data element_type="f16" offset="16162" shape="144,1,1,1" size="288"/>
			<output>
				<port id="0" precision="FP16">
					<dim>144</dim>
					<dim>1</dim>
					<dim>1</dim>
					<dim>1</dim>
				</port>
			</output>
		</layer>
		<layer id="131" name="392/fq_weights_1/minus_zp" type="Subtract" version="opset1">
			<data auto_broadcast="numpy"/>
			<input>
				<port id="0">
					<dim>144</dim>
					<dim>1</dim>
					<dim>3</dim>
					<dim>3</dim>
				</port>
				<port id="1">
					<dim>144</dim>
					<dim>1</dim>
					<dim>1</dim>
					<dim>1</dim>
				</port>
			</input>
			<output>
				<port id="2" precision="FP16">
					<dim>144</dim>
					<dim>1</dim>
					<dim>3</dim>
					<dim>3</dim>
				</port>
			</output>
		</layer>
		<layer id="132" name="392/fq_weights_1/scale24005_const" type="Const" version="opset1">
			<data element_type="f16" offset="16450" shape="144,1,1,1" size="288"/>
			<output>
				<port id="0" precision="FP16">
					<dim>144</dim>
					<dim>1</dim>
					<dim>1</dim>
					<dim>1</dim>
				</port>
			</output>
		</layer>
		<layer id="133" name="392/fq_weights_1/mulpiply_by_scale" type="Multiply" version="opset1">
			<data auto_broadcast="numpy"/>
			<input>
				<port id="0">
					<dim>144</dim>
					<dim>1</dim>
					<dim>3</dim>
					<dim>3</dim>
				</port>
				<port id="1">
					<dim>144</dim>
					<dim>1</dim>
					<dim>1</dim>
					<dim>1</dim>
				</port>
			</input>
			<output>
				<port id="2" precision="FP16">
					<dim>144</dim>
					<dim>1</dim>
					<dim>3</dim>
					<dim>3</dim>
				</port>
			</output>
		</layer>
		<layer id="134" name="31006/value31008_const" type="Const" version="opset1">
			<data element_type="i64" offset="16738" shape="5" size="40"/>
			<output>
				<port id="0" precision="I64">
					<dim>5</dim>
				</port>
			</output>
		</layer>
		<layer id="135" name="31006" type="Reshape" version="opset1">
			<data special_zero="true"/>
			<input>
				<port id="0">
					<dim>144</dim>
					<dim>1</dim>
					<dim>3</dim>
					<dim>3</dim>
				</port>
				<port id="1">
					<dim>5</dim>
				</port>
			</input>
			<output>
				<port id="2" precision="FP16">
					<dim>144</dim>
					<dim>1</dim>
					<dim>1</dim>
					<dim>3</dim>
					<dim>3</dim>
				</port>
			</output>
		</layer>
		<layer id="136" name="392" type="GroupConvolution" version="opset1">
			<data auto_pad="explicit" dilations="1,1" pads_begin="1,1" pads_end="1,1" strides="1,1"/>
			<input>
				<port id="0">
					<dim>1</dim>
					<dim>144</dim>
					<dim>120</dim>
					<dim>216</dim>
				</port>
				<port id="1">
					<dim>144</dim>
					<dim>1</dim>
					<dim>1</dim>
					<dim>3</dim>
					<dim>3</dim>
				</port>
			</input>
			<output>
				<port id="2" precision="FP16">
					<dim>1</dim>
					<dim>144</dim>
					<dim>120</dim>
					<dim>216</dim>
				</port>
			</output>
		</layer>
		<layer id="137" name="data_add_471804718548923/EltwiseUnsqueeze49657_const3067_const" type="Const" version="opset1">
			<data element_type="f16" offset="16778" shape="1,144,1,1" size="288"/>
			<output>
				<port id="0" precision="FP16">
					<dim>1</dim>
					<dim>144</dim>
					<dim>1</dim>
					<dim>1</dim>
				</port>
			</output>
		</layer>
		<layer id="138" name="393/variance/Fused_Add_" type="Add" version="opset1">
			<data auto_broadcast="numpy"/>
			<input>
				<port id="0">
					<dim>1</dim>
					<dim>144</dim>
					<dim>120</dim>
					<dim>216</dim>
				</port>
				<port id="1">
					<dim>1</dim>
					<dim>144</dim>
					<dim>1</dim>
					<dim>1</dim>
				</port>
			</input>
			<output>
				<port id="2" names="393" precision="FP16">
					<dim>1</dim>
					<dim>144</dim>
					<dim>120</dim>
					<dim>216</dim>
				</port>
			</output>
		</layer>
		<layer id="139" name="394" type="Clamp" version="opset1">
			<data max="6.0" min="0.0"/>
			<input>
				<port id="0">
					<dim>1</dim>
					<dim>144</dim>
					<dim>120</dim>
					<dim>216</dim>
				</port>
			</input>
			<output>
				<port id="1" names="394" precision="FP16">
					<dim>1</dim>
					<dim>144</dim>
					<dim>120</dim>
					<dim>216</dim>
				</port>
			</output>
		</layer>
		<layer id="140" name="1172511729_const" type="Const" version="opset1">
			<data element_type="f16" offset="0" shape="" size="2"/>
			<output>
				<port id="0" precision="FP16"/>
			</output>
		</layer>
		<layer id="141" name="1172611730_const" type="Const" version="opset1">
			<data element_type="f16" offset="2926" shape="" size="2"/>
			<output>
				<port id="0" precision="FP16"/>
			</output>
		</layer>
		<layer id="142" name="1172711731_const" type="Const" version="opset1">
			<data element_type="f16" offset="0" shape="" size="2"/>
			<output>
				<port id="0" precision="FP16"/>
			</output>
		</layer>
		<layer id="143" name="1172811732_const" type="Const" version="opset1">
			<data element_type="f16" offset="2926" shape="" size="2"/>
			<output>
				<port id="0" precision="FP16"/>
			</output>
		</layer>
		<layer id="144" name="395/fq_input_0" type="FakeQuantize" version="opset1">
			<data auto_broadcast="numpy" levels="256"/>
			<input>
				<port id="0">
					<dim>1</dim>
					<dim>144</dim>
					<dim>120</dim>
					<dim>216</dim>
				</port>
				<port id="1"/>
				<port id="2"/>
				<port id="3"/>
				<port id="4"/>
			</input>
			<output>
				<port id="5" precision="FP16">
					<dim>1</dim>
					<dim>144</dim>
					<dim>120</dim>
					<dim>216</dim>
				</port>
			</output>
		</layer>
		<layer id="145" name="396/mean/Fused_Mul_5153951541_const307020444/quantized24357_const" type="Const" version="opset1">
			<data element_type="i8" offset="17066" shape="24,144,1,1" size="3456"/>
			<output>
				<port id="0" precision="I8">
					<dim>24</dim>
					<dim>144</dim>
					<dim>1</dim>
					<dim>1</dim>
				</port>
			</output>
		</layer>
		<layer id="146" name="396/mean/Fused_Mul_5153951541_const307020444/quantized/to_f16" type="Convert" version="opset1">
			<data destination_type="f16"/>
			<input>
				<port id="0">
					<dim>24</dim>
					<dim>144</dim>
					<dim>1</dim>
					<dim>1</dim>
				</port>
			</input>
			<output>
				<port id="1" precision="FP16">
					<dim>24</dim>
					<dim>144</dim>
					<dim>1</dim>
					<dim>1</dim>
				</port>
			</output>
		</layer>
		<layer id="147" name="395/fq_weights_1/zero_point24370_const" type="Const" version="opset1">
			<data element_type="f16" offset="20522" shape="24,1,1,1" size="48"/>
			<output>
				<port id="0" precision="FP16">
					<dim>24</dim>
					<dim>1</dim>
					<dim>1</dim>
					<dim>1</dim>
				</port>
			</output>
		</layer>
		<layer id="148" name="395/fq_weights_1/minus_zp" type="Subtract" version="opset1">
			<data auto_broadcast="numpy"/>
			<input>
				<port id="0">
					<dim>24</dim>
					<dim>144</dim>
					<dim>1</dim>
					<dim>1</dim>
				</port>
				<port id="1">
					<dim>24</dim>
					<dim>1</dim>
					<dim>1</dim>
					<dim>1</dim>
				</port>
			</input>
			<output>
				<port id="2" precision="FP16">
					<dim>24</dim>
					<dim>144</dim>
					<dim>1</dim>
					<dim>1</dim>
				</port>
			</output>
		</layer>
		<layer id="149" name="395/fq_weights_1/scale24365_const" type="Const" version="opset1">
			<data element_type="f16" offset="20570" shape="24,1,1,1" size="48"/>
			<output>
				<port id="0" precision="FP16">
					<dim>24</dim>
					<dim>1</dim>
					<dim>1</dim>
					<dim>1</dim>
				</port>
			</output>
		</layer>
		<layer id="150" name="395/fq_weights_1/mulpiply_by_scale" type="Multiply" version="opset1">
			<data auto_broadcast="numpy"/>
			<input>
				<port id="0">
					<dim>24</dim>
					<dim>144</dim>
					<dim>1</dim>
					<dim>1</dim>
				</port>
				<port id="1">
					<dim>24</dim>
					<dim>1</dim>
					<dim>1</dim>
					<dim>1</dim>
				</port>
			</input>
			<output>
				<port id="2" precision="FP16">
					<dim>24</dim>
					<dim>144</dim>
					<dim>1</dim>
					<dim>1</dim>
				</port>
			</output>
		</layer>
		<layer id="151" name="395" type="Convolution" version="opset1">
			<data auto_pad="explicit" dilations="1,1" pads_begin="0,0" pads_end="0,0" strides="1,1"/>
			<input>
				<port id="0">
					<dim>1</dim>
					<dim>144</dim>
					<dim>120</dim>
					<dim>216</dim>
				</port>
				<port id="1">
					<dim>24</dim>
					<dim>144</dim>
					<dim>1</dim>
					<dim>1</dim>
				</port>
			</input>
			<output>
				<port id="2" precision="FP16">
					<dim>1</dim>
					<dim>24</dim>
					<dim>120</dim>
					<dim>216</dim>
				</port>
			</output>
		</layer>
		<layer id="152" name="data_add_471884719348925/EltwiseUnsqueeze49665_const3072_const" type="Const" version="opset1">
			<data element_type="f16" offset="20618" shape="1,24,1,1" size="48"/>
			<output>
				<port id="0" precision="FP16">
					<dim>1</dim>
					<dim>24</dim>
					<dim>1</dim>
					<dim>1</dim>
				</port>
			</output>
		</layer>
		<layer id="153" name="396/variance/Fused_Add_" type="Add" version="opset1">
			<data auto_broadcast="numpy"/>
			<input>
				<port id="0">
					<dim>1</dim>
					<dim>24</dim>
					<dim>120</dim>
					<dim>216</dim>
				</port>
				<port id="1">
					<dim>1</dim>
					<dim>24</dim>
					<dim>1</dim>
					<dim>1</dim>
				</port>
			</input>
			<output>
				<port id="2" names="396" precision="FP16">
					<dim>1</dim>
					<dim>24</dim>
					<dim>120</dim>
					<dim>216</dim>
				</port>
			</output>
		</layer>
		<layer id="154" name="1053510539_const" type="Const" version="opset1">
			<data element_type="f16" offset="20666" shape="" size="2"/>
			<output>
				<port id="0" precision="FP16"/>
			</output>
		</layer>
		<layer id="155" name="1053610540_const" type="Const" version="opset1">
			<data element_type="f16" offset="20668" shape="" size="2"/>
			<output>
				<port id="0" precision="FP16"/>
			</output>
		</layer>
		<layer id="156" name="1053710541_const" type="Const" version="opset1">
			<data element_type="f16" offset="20666" shape="" size="2"/>
			<output>
				<port id="0" precision="FP16"/>
			</output>
		</layer>
		<layer id="157" name="1053810542_const" type="Const" version="opset1">
			<data element_type="f16" offset="20668" shape="" size="2"/>
			<output>
				<port id="0" precision="FP16"/>
			</output>
		</layer>
		<layer id="158" name="397/fq_input_0" type="FakeQuantize" version="opset1">
			<data auto_broadcast="numpy" levels="256"/>
			<input>
				<port id="0">
					<dim>1</dim>
					<dim>24</dim>
					<dim>120</dim>
					<dim>216</dim>
				</port>
				<port id="1"/>
				<port id="2"/>
				<port id="3"/>
				<port id="4"/>
			</input>
			<output>
				<port id="5" precision="FP16">
					<dim>1</dim>
					<dim>24</dim>
					<dim>120</dim>
					<dim>216</dim>
				</port>
			</output>
		</layer>
		<layer id="159" name="397" type="Add" version="opset1">
			<data auto_broadcast="numpy"/>
			<input>
				<port id="0">
					<dim>1</dim>
					<dim>24</dim>
					<dim>120</dim>
					<dim>216</dim>
				</port>
				<port id="1">
					<dim>1</dim>
					<dim>24</dim>
					<dim>120</dim>
					<dim>216</dim>
				</port>
			</input>
			<output>
				<port id="2" names="397" precision="FP16">
					<dim>1</dim>
					<dim>24</dim>
					<dim>120</dim>
					<dim>216</dim>
				</port>
			</output>
		</layer>
		<layer id="160" name="1145511459_const" type="Const" version="opset1">
			<data element_type="f16" offset="20670" shape="" size="2"/>
			<output>
				<port id="0" precision="FP16"/>
			</output>
		</layer>
		<layer id="161" name="1145611460_const" type="Const" version="opset1">
			<data element_type="f16" offset="20672" shape="" size="2"/>
			<output>
				<port id="0" precision="FP16"/>
			</output>
		</layer>
		<layer id="162" name="1145711461_const" type="Const" version="opset1">
			<data element_type="f16" offset="20670" shape="" size="2"/>
			<output>
				<port id="0" precision="FP16"/>
			</output>
		</layer>
		<layer id="163" name="1145811462_const" type="Const" version="opset1">
			<data element_type="f16" offset="20672" shape="" size="2"/>
			<output>
				<port id="0" precision="FP16"/>
			</output>
		</layer>
		<layer id="164" name="398/fq_input_0" type="FakeQuantize" version="opset1">
			<data auto_broadcast="numpy" levels="256"/>
			<input>
				<port id="0">
					<dim>1</dim>
					<dim>24</dim>
					<dim>120</dim>
					<dim>216</dim>
				</port>
				<port id="1"/>
				<port id="2"/>
				<port id="3"/>
				<port id="4"/>
			</input>
			<output>
				<port id="5" precision="FP16">
					<dim>1</dim>
					<dim>24</dim>
					<dim>120</dim>
					<dim>216</dim>
				</port>
			</output>
		</layer>
		<layer id="165" name="399/mean/Fused_Mul_5154351545_const307520446/quantized23085_const" type="Const" version="opset1">
			<data element_type="i8" offset="20674" shape="144,24,1,1" size="3456"/>
			<output>
				<port id="0" precision="I8">
					<dim>144</dim>
					<dim>24</dim>
					<dim>1</dim>
					<dim>1</dim>
				</port>
			</output>
		</layer>
		<layer id="166" name="399/mean/Fused_Mul_5154351545_const307520446/quantized/to_f16" type="Convert" version="opset1">
			<data destination_type="f16"/>
			<input>
				<port id="0">
					<dim>144</dim>
					<dim>24</dim>
					<dim>1</dim>
					<dim>1</dim>
				</port>
			</input>
			<output>
				<port id="1" precision="FP16">
					<dim>144</dim>
					<dim>24</dim>
					<dim>1</dim>
					<dim>1</dim>
				</port>
			</output>
		</layer>
		<layer id="167" name="398/fq_weights_1/zero_point23098_const" type="Const" version="opset1">
			<data element_type="f16" offset="24130" shape="144,1,1,1" size="288"/>
			<output>
				<port id="0" precision="FP16">
					<dim>144</dim>
					<dim>1</dim>
					<dim>1</dim>
					<dim>1</dim>
				</port>
			</output>
		</layer>
		<layer id="168" name="398/fq_weights_1/minus_zp" type="Subtract" version="opset1">
			<data auto_broadcast="numpy"/>
			<input>
				<port id="0">
					<dim>144</dim>
					<dim>24</dim>
					<dim>1</dim>
					<dim>1</dim>
				</port>
				<port id="1">
					<dim>144</dim>
					<dim>1</dim>
					<dim>1</dim>
					<dim>1</dim>
				</port>
			</input>
			<output>
				<port id="2" precision="FP16">
					<dim>144</dim>
					<dim>24</dim>
					<dim>1</dim>
					<dim>1</dim>
				</port>
			</output>
		</layer>
		<layer id="169" name="398/fq_weights_1/scale23093_const" type="Const" version="opset1">
			<data element_type="f16" offset="24418" shape="144,1,1,1" size="288"/>
			<output>
				<port id="0" precision="FP16">
					<dim>144</dim>
					<dim>1</dim>
					<dim>1</dim>
					<dim>1</dim>
				</port>
			</output>
		</layer>
		<layer id="170" name="398/fq_weights_1/mulpiply_by_scale" type="Multiply" version="opset1">
			<data auto_broadcast="numpy"/>
			<input>
				<port id="0">
					<dim>144</dim>
					<dim>24</dim>
					<dim>1</dim>
					<dim>1</dim>
				</port>
				<port id="1">
					<dim>144</dim>
					<dim>1</dim>
					<dim>1</dim>
					<dim>1</dim>
				</port>
			</input>
			<output>
				<port id="2" precision="FP16">
					<dim>144</dim>
					<dim>24</dim>
					<dim>1</dim>
					<dim>1</dim>
				</port>
			</output>
		</layer>
		<layer id="171" name="398" type="Convolution" version="opset1">
			<data auto_pad="explicit" dilations="1,1" pads_begin="0,0" pads_end="0,0" strides="1,1"/>
			<input>
				<port id="0">
					<dim>1</dim>
					<dim>24</dim>
					<dim>120</dim>
					<dim>216</dim>
				</port>
				<port id="1">
					<dim>144</dim>
					<dim>24</dim>
					<dim>1</dim>
					<dim>1</dim>
				</port>
			</input>
			<output>
				<port id="2" precision="FP16">
					<dim>1</dim>
					<dim>144</dim>
					<dim>120</dim>
					<dim>216</dim>
				</port>
			</output>
		</layer>
		<layer id="172" name="data_add_471964720148927/EltwiseUnsqueeze49673_const3077_const" type="Const" version="opset1">
			<data element_type="f16" offset="24706" shape="1,144,1,1" size="288"/>
			<output>
				<port id="0" precision="FP16">
					<dim>1</dim>
					<dim>144</dim>
					<dim>1</dim>
					<dim>1</dim>
				</port>
			</output>
		</layer>
		<layer id="173" name="399/variance/Fused_Add_" type="Add" version="opset1">
			<data auto_broadcast="numpy"/>
			<input>
				<port id="0">
					<dim>1</dim>
					<dim>144</dim>
					<dim>120</dim>
					<dim>216</dim>
				</port>
				<port id="1">
					<dim>1</dim>
					<dim>144</dim>
					<dim>1</dim>
					<dim>1</dim>
				</port>
			</input>
			<output>
				<port id="2" names="399" precision="FP16">
					<dim>1</dim>
					<dim>144</dim>
					<dim>120</dim>
					<dim>216</dim>
				</port>
			</output>
		</layer>
		<layer id="174" name="400" type="Clamp" version="opset1">
			<data max="6.0" min="0.0"/>
			<input>
				<port id="0">
					<dim>1</dim>
					<dim>144</dim>
					<dim>120</dim>
					<dim>216</dim>
				</port>
			</input>
			<output>
				<port id="1" names="400" precision="FP16">
					<dim>1</dim>
					<dim>144</dim>
					<dim>120</dim>
					<dim>216</dim>
				</port>
			</output>
		</layer>
		<layer id="175" name="1303513039_const" type="Const" version="opset1">
			<data element_type="f16" offset="14290" shape="1,144,1,1" size="288"/>
			<output>
				<port id="0" precision="FP16">
					<dim>1</dim>
					<dim>144</dim>
					<dim>1</dim>
					<dim>1</dim>
				</port>
			</output>
		</layer>
		<layer id="176" name="1303613040_const" type="Const" version="opset1">
			<data element_type="f16" offset="24994" shape="1,144,1,1" size="288"/>
			<output>
				<port id="0" precision="FP16">
					<dim>1</dim>
					<dim>144</dim>
					<dim>1</dim>
					<dim>1</dim>
				</port>
			</output>
		</layer>
		<layer id="177" name="1303713041_const" type="Const" version="opset1">
			<data element_type="f16" offset="14290" shape="1,144,1,1" size="288"/>
			<output>
				<port id="0" precision="FP16">
					<dim>1</dim>
					<dim>144</dim>
					<dim>1</dim>
					<dim>1</dim>
				</port>
			</output>
		</layer>
		<layer id="178" name="1303813042_const" type="Const" version="opset1">
			<data element_type="f16" offset="24994" shape="1,144,1,1" size="288"/>
			<output>
				<port id="0" precision="FP16">
					<dim>1</dim>
					<dim>144</dim>
					<dim>1</dim>
					<dim>1</dim>
				</port>
			</output>
		</layer>
		<layer id="179" name="401/fq_input_0" type="FakeQuantize" version="opset1">
			<data auto_broadcast="numpy" levels="256"/>
			<input>
				<port id="0">
					<dim>1</dim>
					<dim>144</dim>
					<dim>120</dim>
					<dim>216</dim>
				</port>
				<port id="1">
					<dim>1</dim>
					<dim>144</dim>
					<dim>1</dim>
					<dim>1</dim>
				</port>
				<port id="2">
					<dim>1</dim>
					<dim>144</dim>
					<dim>1</dim>
					<dim>1</dim>
				</port>
				<port id="3">
					<dim>1</dim>
					<dim>144</dim>
					<dim>1</dim>
					<dim>1</dim>
				</port>
				<port id="4">
					<dim>1</dim>
					<dim>144</dim>
					<dim>1</dim>
					<dim>1</dim>
				</port>
			</input>
			<output>
				<port id="5" precision="FP16">
					<dim>1</dim>
					<dim>144</dim>
					<dim>120</dim>
					<dim>216</dim>
				</port>
			</output>
		</layer>
		<layer id="180" name="101638101641_const308020448/quantized22893_const" type="Const" version="opset1">
			<data element_type="i8" offset="25282" shape="144,1,3,3" size="1296"/>
			<output>
				<port id="0" precision="I8">
					<dim>144</dim>
					<dim>1</dim>
					<dim>3</dim>
					<dim>3</dim>
				</port>
			</output>
		</layer>
		<layer id="181" name="101638101641_const308020448/quantized/to_f16" type="Convert" version="opset1">
			<data destination_type="f16"/>
			<input>
				<port id="0">
					<dim>144</dim>
					<dim>1</dim>
					<dim>3</dim>
					<dim>3</dim>
				</port>
			</input>
			<output>
				<port id="1" precision="FP16">
					<dim>144</dim>
					<dim>1</dim>
					<dim>3</dim>
					<dim>3</dim>
				</port>
			</output>
		</layer>
		<layer id="182" name="401/fq_weights_1/zero_point22906_const" type="Const" version="opset1">
			<data element_type="f16" offset="26578" shape="144,1,1,1" size="288"/>
			<output>
				<port id="0" precision="FP16">
					<dim>144</dim>
					<dim>1</dim>
					<dim>1</dim>
					<dim>1</dim>
				</port>
			</output>
		</layer>
		<layer id="183" name="401/fq_weights_1/minus_zp" type="Subtract" version="opset1">
			<data auto_broadcast="numpy"/>
			<input>
				<port id="0">
					<dim>144</dim>
					<dim>1</dim>
					<dim>3</dim>
					<dim>3</dim>
				</port>
				<port id="1">
					<dim>144</dim>
					<dim>1</dim>
					<dim>1</dim>
					<dim>1</dim>
				</port>
			</input>
			<output>
				<port id="2" precision="FP16">
					<dim>144</dim>
					<dim>1</dim>
					<dim>3</dim>
					<dim>3</dim>
				</port>
			</output>
		</layer>
		<layer id="184" name="401/fq_weights_1/scale22901_const" type="Const" version="opset1">
			<data element_type="f16" offset="26866" shape="144,1,1,1" size="288"/>
			<output>
				<port id="0" precision="FP16">
					<dim>144</dim>
					<dim>1</dim>
					<dim>1</dim>
					<dim>1</dim>
				</port>
			</output>
		</layer>
		<layer id="185" name="401/fq_weights_1/mulpiply_by_scale" type="Multiply" version="opset1">
			<data auto_broadcast="numpy"/>
			<input>
				<port id="0">
					<dim>144</dim>
					<dim>1</dim>
					<dim>3</dim>
					<dim>3</dim>
				</port>
				<port id="1">
					<dim>144</dim>
					<dim>1</dim>
					<dim>1</dim>
					<dim>1</dim>
				</port>
			</input>
			<output>
				<port id="2" precision="FP16">
					<dim>144</dim>
					<dim>1</dim>
					<dim>3</dim>
					<dim>3</dim>
				</port>
			</output>
		</layer>
		<layer id="186" name="31010/value31012_const" type="Const" version="opset1">
			<data element_type="i64" offset="16738" shape="5" size="40"/>
			<output>
				<port id="0" precision="I64">
					<dim>5</dim>
				</port>
			</output>
		</layer>
		<layer id="187" name="31010" type="Reshape" version="opset1">
			<data special_zero="true"/>
			<input>
				<port id="0">
					<dim>144</dim>
					<dim>1</dim>
					<dim>3</dim>
					<dim>3</dim>
				</port>
				<port id="1">
					<dim>5</dim>
				</port>
			</input>
			<output>
				<port id="2" precision="FP16">
					<dim>144</dim>
					<dim>1</dim>
					<dim>1</dim>
					<dim>3</dim>
					<dim>3</dim>
				</port>
			</output>
		</layer>
		<layer id="188" name="401" type="GroupConvolution" version="opset1">
			<data auto_pad="explicit" dilations="1,1" pads_begin="1,1" pads_end="1,1" strides="2,2"/>
			<input>
				<port id="0">
					<dim>1</dim>
					<dim>144</dim>
					<dim>120</dim>
					<dim>216</dim>
				</port>
				<port id="1">
					<dim>144</dim>
					<dim>1</dim>
					<dim>1</dim>
					<dim>3</dim>
					<dim>3</dim>
				</port>
			</input>
			<output>
				<port id="2" precision="FP16">
					<dim>1</dim>
					<dim>144</dim>
					<dim>60</dim>
					<dim>108</dim>
				</port>
			</output>
		</layer>
		<layer id="189" name="data_add_472044720948929/EltwiseUnsqueeze49681_const3082_const" type="Const" version="opset1">
			<data element_type="f16" offset="27154" shape="1,144,1,1" size="288"/>
			<output>
				<port id="0" precision="FP16">
					<dim>1</dim>
					<dim>144</dim>
					<dim>1</dim>
					<dim>1</dim>
				</port>
			</output>
		</layer>
		<layer id="190" name="402/variance/Fused_Add_" type="Add" version="opset1">
			<data auto_broadcast="numpy"/>
			<input>
				<port id="0">
					<dim>1</dim>
					<dim>144</dim>
					<dim>60</dim>
					<dim>108</dim>
				</port>
				<port id="1">
					<dim>1</dim>
					<dim>144</dim>
					<dim>1</dim>
					<dim>1</dim>
				</port>
			</input>
			<output>
				<port id="2" names="402" precision="FP16">
					<dim>1</dim>
					<dim>144</dim>
					<dim>60</dim>
					<dim>108</dim>
				</port>
			</output>
		</layer>
		<layer id="191" name="403" type="Clamp" version="opset1">
			<data max="6.0" min="0.0"/>
			<input>
				<port id="0">
					<dim>1</dim>
					<dim>144</dim>
					<dim>60</dim>
					<dim>108</dim>
				</port>
			</input>
			<output>
				<port id="1" names="403" precision="FP16">
					<dim>1</dim>
					<dim>144</dim>
					<dim>60</dim>
					<dim>108</dim>
				</port>
			</output>
		</layer>
		<layer id="192" name="1234512349_const" type="Const" version="opset1">
			<data element_type="f16" offset="0" shape="" size="2"/>
			<output>
				<port id="0" precision="FP16"/>
			</output>
		</layer>
		<layer id="193" name="1234612350_const" type="Const" version="opset1">
			<data element_type="f16" offset="27442" shape="" size="2"/>
			<output>
				<port id="0" precision="FP16"/>
			</output>
		</layer>
		<layer id="194" name="1234712351_const" type="Const" version="opset1">
			<data element_type="f16" offset="0" shape="" size="2"/>
			<output>
				<port id="0" precision="FP16"/>
			</output>
		</layer>
		<layer id="195" name="1234812352_const" type="Const" version="opset1">
			<data element_type="f16" offset="27442" shape="" size="2"/>
			<output>
				<port id="0" precision="FP16"/>
			</output>
		</layer>
		<layer id="196" name="404/fq_input_0" type="FakeQuantize" version="opset1">
			<data auto_broadcast="numpy" levels="256"/>
			<input>
				<port id="0">
					<dim>1</dim>
					<dim>144</dim>
					<dim>60</dim>
					<dim>108</dim>
				</port>
				<port id="1"/>
				<port id="2"/>
				<port id="3"/>
				<port id="4"/>
			</input>
			<output>
				<port id="5" precision="FP16">
					<dim>1</dim>
					<dim>144</dim>
					<dim>60</dim>
					<dim>108</dim>
				</port>
			</output>
		</layer>
		<layer id="197" name="405/mean/Fused_Mul_5155151553_const308520450/quantized24525_const" type="Const" version="opset1">
			<data element_type="i8" offset="27444" shape="32,144,1,1" size="4608"/>
			<output>
				<port id="0" precision="I8">
					<dim>32</dim>
					<dim>144</dim>
					<dim>1</dim>
					<dim>1</dim>
				</port>
			</output>
		</layer>
		<layer id="198" name="405/mean/Fused_Mul_5155151553_const308520450/quantized/to_f16" type="Convert" version="opset1">
			<data destination_type="f16"/>
			<input>
				<port id="0">
					<dim>32</dim>
					<dim>144</dim>
					<dim>1</dim>
					<dim>1</dim>
				</port>
			</input>
			<output>
				<port id="1" precision="FP16">
					<dim>32</dim>
					<dim>144</dim>
					<dim>1</dim>
					<dim>1</dim>
				</port>
			</output>
		</layer>
		<layer id="199" name="404/fq_weights_1/zero_point24538_const" type="Const" version="opset1">
			<data element_type="f16" offset="32052" shape="32,1,1,1" size="64"/>
			<output>
				<port id="0" precision="FP16">
					<dim>32</dim>
					<dim>1</dim>
					<dim>1</dim>
					<dim>1</dim>
				</port>
			</output>
		</layer>
		<layer id="200" name="404/fq_weights_1/minus_zp" type="Subtract" version="opset1">
			<data auto_broadcast="numpy"/>
			<input>
				<port id="0">
					<dim>32</dim>
					<dim>144</dim>
					<dim>1</dim>
					<dim>1</dim>
				</port>
				<port id="1">
					<dim>32</dim>
					<dim>1</dim>
					<dim>1</dim>
					<dim>1</dim>
				</port>
			</input>
			<output>
				<port id="2" precision="FP16">
					<dim>32</dim>
					<dim>144</dim>
					<dim>1</dim>
					<dim>1</dim>
				</port>
			</output>
		</layer>
		<layer id="201" name="404/fq_weights_1/scale24533_const" type="Const" version="opset1">
			<data element_type="f16" offset="32116" shape="32,1,1,1" size="64"/>
			<output>
				<port id="0" precision="FP16">
					<dim>32</dim>
					<dim>1</dim>
					<dim>1</dim>
					<dim>1</dim>
				</port>
			</output>
		</layer>
		<layer id="202" name="404/fq_weights_1/mulpiply_by_scale" type="Multiply" version="opset1">
			<data auto_broadcast="numpy"/>
			<input>
				<port id="0">
					<dim>32</dim>
					<dim>144</dim>
					<dim>1</dim>
					<dim>1</dim>
				</port>
				<port id="1">
					<dim>32</dim>
					<dim>1</dim>
					<dim>1</dim>
					<dim>1</dim>
				</port>
			</input>
			<output>
				<port id="2" precision="FP16">
					<dim>32</dim>
					<dim>144</dim>
					<dim>1</dim>
					<dim>1</dim>
				</port>
			</output>
		</layer>
		<layer id="203" name="404" type="Convolution" version="opset1">
			<data auto_pad="explicit" dilations="1,1" pads_begin="0,0" pads_end="0,0" strides="1,1"/>
			<input>
				<port id="0">
					<dim>1</dim>
					<dim>144</dim>
					<dim>60</dim>
					<dim>108</dim>
				</port>
				<port id="1">
					<dim>32</dim>
					<dim>144</dim>
					<dim>1</dim>
					<dim>1</dim>
				</port>
			</input>
			<output>
				<port id="2" precision="FP16">
					<dim>1</dim>
					<dim>32</dim>
					<dim>60</dim>
					<dim>108</dim>
				</port>
			</output>
		</layer>
		<layer id="204" name="data_add_472124721748931/EltwiseUnsqueeze49689_const3087_const" type="Const" version="opset1">
			<data element_type="f16" offset="32180" shape="1,32,1,1" size="64"/>
			<output>
				<port id="0" precision="FP16">
					<dim>1</dim>
					<dim>32</dim>
					<dim>1</dim>
					<dim>1</dim>
				</port>
			</output>
		</layer>
		<layer id="205" name="405/variance/Fused_Add_" type="Add" version="opset1">
			<data auto_broadcast="numpy"/>
			<input>
				<port id="0">
					<dim>1</dim>
					<dim>32</dim>
					<dim>60</dim>
					<dim>108</dim>
				</port>
				<port id="1">
					<dim>1</dim>
					<dim>32</dim>
					<dim>1</dim>
					<dim>1</dim>
				</port>
			</input>
			<output>
				<port id="2" names="405" precision="FP16">
					<dim>1</dim>
					<dim>32</dim>
					<dim>60</dim>
					<dim>108</dim>
				</port>
			</output>
		</layer>
		<layer id="206" name="1159511599_const" type="Const" version="opset1">
			<data element_type="f16" offset="32244" shape="" size="2"/>
			<output>
				<port id="0" precision="FP16"/>
			</output>
		</layer>
		<layer id="207" name="1159611600_const" type="Const" version="opset1">
			<data element_type="f16" offset="32246" shape="" size="2"/>
			<output>
				<port id="0" precision="FP16"/>
			</output>
		</layer>
		<layer id="208" name="1159711601_const" type="Const" version="opset1">
			<data element_type="f16" offset="32244" shape="" size="2"/>
			<output>
				<port id="0" precision="FP16"/>
			</output>
		</layer>
		<layer id="209" name="1159811602_const" type="Const" version="opset1">
			<data element_type="f16" offset="32246" shape="" size="2"/>
			<output>
				<port id="0" precision="FP16"/>
			</output>
		</layer>
		<layer id="210" name="406/fq_input_0" type="FakeQuantize" version="opset1">
			<data auto_broadcast="numpy" levels="256"/>
			<input>
				<port id="0">
					<dim>1</dim>
					<dim>32</dim>
					<dim>60</dim>
					<dim>108</dim>
				</port>
				<port id="1"/>
				<port id="2"/>
				<port id="3"/>
				<port id="4"/>
			</input>
			<output>
				<port id="5" precision="FP16">
					<dim>1</dim>
					<dim>32</dim>
					<dim>60</dim>
					<dim>108</dim>
				</port>
			</output>
		</layer>
		<layer id="211" name="407/mean/Fused_Mul_5155551557_const308920452/quantized24813_const" type="Const" version="opset1">
			<data element_type="i8" offset="32248" shape="192,32,1,1" size="6144"/>
			<output>
				<port id="0" precision="I8">
					<dim>192</dim>
					<dim>32</dim>
					<dim>1</dim>
					<dim>1</dim>
				</port>
			</output>
		</layer>
		<layer id="212" name="407/mean/Fused_Mul_5155551557_const308920452/quantized/to_f16" type="Convert" version="opset1">
			<data destination_type="f16"/>
			<input>
				<port id="0">
					<dim>192</dim>
					<dim>32</dim>
					<dim>1</dim>
					<dim>1</dim>
				</port>
			</input>
			<output>
				<port id="1" precision="FP16">
					<dim>192</dim>
					<dim>32</dim>
					<dim>1</dim>
					<dim>1</dim>
				</port>
			</output>
		</layer>
		<layer id="213" name="406/fq_weights_1/zero_point24826_const" type="Const" version="opset1">
			<data element_type="f16" offset="38392" shape="192,1,1,1" size="384"/>
			<output>
				<port id="0" precision="FP16">
					<dim>192</dim>
					<dim>1</dim>
					<dim>1</dim>
					<dim>1</dim>
				</port>
			</output>
		</layer>
		<layer id="214" name="406/fq_weights_1/minus_zp" type="Subtract" version="opset1">
			<data auto_broadcast="numpy"/>
			<input>
				<port id="0">
					<dim>192</dim>
					<dim>32</dim>
					<dim>1</dim>
					<dim>1</dim>
				</port>
				<port id="1">
					<dim>192</dim>
					<dim>1</dim>
					<dim>1</dim>
					<dim>1</dim>
				</port>
			</input>
			<output>
				<port id="2" precision="FP16">
					<dim>192</dim>
					<dim>32</dim>
					<dim>1</dim>
					<dim>1</dim>
				</port>
			</output>
		</layer>
		<layer id="215" name="406/fq_weights_1/scale24821_const" type="Const" version="opset1">
			<data element_type="f16" offset="38776" shape="192,1,1,1" size="384"/>
			<output>
				<port id="0" precision="FP16">
					<dim>192</dim>
					<dim>1</dim>
					<dim>1</dim>
					<dim>1</dim>
				</port>
			</output>
		</layer>
		<layer id="216" name="406/fq_weights_1/mulpiply_by_scale" type="Multiply" version="opset1">
			<data auto_broadcast="numpy"/>
			<input>
				<port id="0">
					<dim>192</dim>
					<dim>32</dim>
					<dim>1</dim>
					<dim>1</dim>
				</port>
				<port id="1">
					<dim>192</dim>
					<dim>1</dim>
					<dim>1</dim>
					<dim>1</dim>
				</port>
			</input>
			<output>
				<port id="2" precision="FP16">
					<dim>192</dim>
					<dim>32</dim>
					<dim>1</dim>
					<dim>1</dim>
				</port>
			</output>
		</layer>
		<layer id="217" name="406" type="Convolution" version="opset1">
			<data auto_pad="explicit" dilations="1,1" pads_begin="0,0" pads_end="0,0" strides="1,1"/>
			<input>
				<port id="0">
					<dim>1</dim>
					<dim>32</dim>
					<dim>60</dim>
					<dim>108</dim>
				</port>
				<port id="1">
					<dim>192</dim>
					<dim>32</dim>
					<dim>1</dim>
					<dim>1</dim>
				</port>
			</input>
			<output>
				<port id="2" precision="FP16">
					<dim>1</dim>
					<dim>192</dim>
					<dim>60</dim>
					<dim>108</dim>
				</port>
			</output>
		</layer>
		<layer id="218" name="data_add_472204722548933/EltwiseUnsqueeze49697_const3091_const" type="Const" version="opset1">
			<data element_type="f16" offset="39160" shape="1,192,1,1" size="384"/>
			<output>
				<port id="0" precision="FP16">
					<dim>1</dim>
					<dim>192</dim>
					<dim>1</dim>
					<dim>1</dim>
				</port>
			</output>
		</layer>
		<layer id="219" name="407/variance/Fused_Add_" type="Add" version="opset1">
			<data auto_broadcast="numpy"/>
			<input>
				<port id="0">
					<dim>1</dim>
					<dim>192</dim>
					<dim>60</dim>
					<dim>108</dim>
				</port>
				<port id="1">
					<dim>1</dim>
					<dim>192</dim>
					<dim>1</dim>
					<dim>1</dim>
				</port>
			</input>
			<output>
				<port id="2" names="407" precision="FP16">
					<dim>1</dim>
					<dim>192</dim>
					<dim>60</dim>
					<dim>108</dim>
				</port>
			</output>
		</layer>
		<layer id="220" name="408" type="Clamp" version="opset1">
			<data max="6.0" min="0.0"/>
			<input>
				<port id="0">
					<dim>1</dim>
					<dim>192</dim>
					<dim>60</dim>
					<dim>108</dim>
				</port>
			</input>
			<output>
				<port id="1" names="408" precision="FP16">
					<dim>1</dim>
					<dim>192</dim>
					<dim>60</dim>
					<dim>108</dim>
				</port>
			</output>
		</layer>
		<layer id="221" name="1034510349_const" type="Const" version="opset1">
			<data element_type="f16" offset="39544" shape="1,192,1,1" size="384"/>
			<output>
				<port id="0" precision="FP16">
					<dim>1</dim>
					<dim>192</dim>
					<dim>1</dim>
					<dim>1</dim>
				</port>
			</output>
		</layer>
		<layer id="222" name="1034610350_const" type="Const" version="opset1">
			<data element_type="f16" offset="39928" shape="1,192,1,1" size="384"/>
			<output>
				<port id="0" precision="FP16">
					<dim>1</dim>
					<dim>192</dim>
					<dim>1</dim>
					<dim>1</dim>
				</port>
			</output>
		</layer>
		<layer id="223" name="1034710351_const" type="Const" version="opset1">
			<data element_type="f16" offset="39544" shape="1,192,1,1" size="384"/>
			<output>
				<port id="0" precision="FP16">
					<dim>1</dim>
					<dim>192</dim>
					<dim>1</dim>
					<dim>1</dim>
				</port>
			</output>
		</layer>
		<layer id="224" name="1034810352_const" type="Const" version="opset1">
			<data element_type="f16" offset="39928" shape="1,192,1,1" size="384"/>
			<output>
				<port id="0" precision="FP16">
					<dim>1</dim>
					<dim>192</dim>
					<dim>1</dim>
					<dim>1</dim>
				</port>
			</output>
		</layer>
		<layer id="225" name="409/fq_input_0" type="FakeQuantize" version="opset1">
			<data auto_broadcast="numpy" levels="256"/>
			<input>
				<port id="0">
					<dim>1</dim>
					<dim>192</dim>
					<dim>60</dim>
					<dim>108</dim>
				</port>
				<port id="1">
					<dim>1</dim>
					<dim>192</dim>
					<dim>1</dim>
					<dim>1</dim>
				</port>
				<port id="2">
					<dim>1</dim>
					<dim>192</dim>
					<dim>1</dim>
					<dim>1</dim>
				</port>
				<port id="3">
					<dim>1</dim>
					<dim>192</dim>
					<dim>1</dim>
					<dim>1</dim>
				</port>
				<port id="4">
					<dim>1</dim>
					<dim>192</dim>
					<dim>1</dim>
					<dim>1</dim>
				</port>
			</input>
			<output>
				<port id="5" precision="FP16">
					<dim>1</dim>
					<dim>192</dim>
					<dim>60</dim>
					<dim>108</dim>
				</port>
			</output>
		</layer>
		<layer id="226" name="101614101617_const309420454/quantized23229_const" type="Const" version="opset1">
			<data element_type="i8" offset="40312" shape="192,1,3,3" size="1728"/>
			<output>
				<port id="0" precision="I8">
					<dim>192</dim>
					<dim>1</dim>
					<dim>3</dim>
					<dim>3</dim>
				</port>
			</output>
		</layer>
		<layer id="227" name="101614101617_const309420454/quantized/to_f16" type="Convert" version="opset1">
			<data destination_type="f16"/>
			<input>
				<port id="0">
					<dim>192</dim>
					<dim>1</dim>
					<dim>3</dim>
					<dim>3</dim>
				</port>
			</input>
			<output>
				<port id="1" precision="FP16">
					<dim>192</dim>
					<dim>1</dim>
					<dim>3</dim>
					<dim>3</dim>
				</port>
			</output>
		</layer>
		<layer id="228" name="409/fq_weights_1/zero_point23242_const" type="Const" version="opset1">
			<data element_type="f16" offset="42040" shape="192,1,1,1" size="384"/>
			<output>
				<port id="0" precision="FP16">
					<dim>192</dim>
					<dim>1</dim>
					<dim>1</dim>
					<dim>1</dim>
				</port>
			</output>
		</layer>
		<layer id="229" name="409/fq_weights_1/minus_zp" type="Subtract" version="opset1">
			<data auto_broadcast="numpy"/>
			<input>
				<port id="0">
					<dim>192</dim>
					<dim>1</dim>
					<dim>3</dim>
					<dim>3</dim>
				</port>
				<port id="1">
					<dim>192</dim>
					<dim>1</dim>
					<dim>1</dim>
					<dim>1</dim>
				</port>
			</input>
			<output>
				<port id="2" precision="FP16">
					<dim>192</dim>
					<dim>1</dim>
					<dim>3</dim>
					<dim>3</dim>
				</port>
			</output>
		</layer>
		<layer id="230" name="409/fq_weights_1/scale23237_const" type="Const" version="opset1">
			<data element_type="f16" offset="42424" shape="192,1,1,1" size="384"/>
			<output>
				<port id="0" precision="FP16">
					<dim>192</dim>
					<dim>1</dim>
					<dim>1</dim>
					<dim>1</dim>
				</port>
			</output>
		</layer>
		<layer id="231" name="409/fq_weights_1/mulpiply_by_scale" type="Multiply" version="opset1">
			<data auto_broadcast="numpy"/>
			<input>
				<port id="0">
					<dim>192</dim>
					<dim>1</dim>
					<dim>3</dim>
					<dim>3</dim>
				</port>
				<port id="1">
					<dim>192</dim>
					<dim>1</dim>
					<dim>1</dim>
					<dim>1</dim>
				</port>
			</input>
			<output>
				<port id="2" precision="FP16">
					<dim>192</dim>
					<dim>1</dim>
					<dim>3</dim>
					<dim>3</dim>
				</port>
			</output>
		</layer>
		<layer id="232" name="30954/value30956_const" type="Const" version="opset1">
			<data element_type="i64" offset="42808" shape="5" size="40"/>
			<output>
				<port id="0" precision="I64">
					<dim>5</dim>
				</port>
			</output>
		</layer>
		<layer id="233" name="30954" type="Reshape" version="opset1">
			<data special_zero="true"/>
			<input>
				<port id="0">
					<dim>192</dim>
					<dim>1</dim>
					<dim>3</dim>
					<dim>3</dim>
				</port>
				<port id="1">
					<dim>5</dim>
				</port>
			</input>
			<output>
				<port id="2" precision="FP16">
					<dim>192</dim>
					<dim>1</dim>
					<dim>1</dim>
					<dim>3</dim>
					<dim>3</dim>
				</port>
			</output>
		</layer>
		<layer id="234" name="409" type="GroupConvolution" version="opset1">
			<data auto_pad="explicit" dilations="1,1" pads_begin="1,1" pads_end="1,1" strides="1,1"/>
			<input>
				<port id="0">
					<dim>1</dim>
					<dim>192</dim>
					<dim>60</dim>
					<dim>108</dim>
				</port>
				<port id="1">
					<dim>192</dim>
					<dim>1</dim>
					<dim>1</dim>
					<dim>3</dim>
					<dim>3</dim>
				</port>
			</input>
			<output>
				<port id="2" precision="FP16">
					<dim>1</dim>
					<dim>192</dim>
					<dim>60</dim>
					<dim>108</dim>
				</port>
			</output>
		</layer>
		<layer id="235" name="data_add_472284723348935/EltwiseUnsqueeze49705_const3096_const" type="Const" version="opset1">
			<data element_type="f16" offset="42848" shape="1,192,1,1" size="384"/>
			<output>
				<port id="0" precision="FP16">
					<dim>1</dim>
					<dim>192</dim>
					<dim>1</dim>
					<dim>1</dim>
				</port>
			</output>
		</layer>
		<layer id="236" name="410/variance/Fused_Add_" type="Add" version="opset1">
			<data auto_broadcast="numpy"/>
			<input>
				<port id="0">
					<dim>1</dim>
					<dim>192</dim>
					<dim>60</dim>
					<dim>108</dim>
				</port>
				<port id="1">
					<dim>1</dim>
					<dim>192</dim>
					<dim>1</dim>
					<dim>1</dim>
				</port>
			</input>
			<output>
				<port id="2" names="410" precision="FP16">
					<dim>1</dim>
					<dim>192</dim>
					<dim>60</dim>
					<dim>108</dim>
				</port>
			</output>
		</layer>
		<layer id="237" name="411" type="Clamp" version="opset1">
			<data max="6.0" min="0.0"/>
			<input>
				<port id="0">
					<dim>1</dim>
					<dim>192</dim>
					<dim>60</dim>
					<dim>108</dim>
				</port>
			</input>
			<output>
				<port id="1" names="411" precision="FP16">
					<dim>1</dim>
					<dim>192</dim>
					<dim>60</dim>
					<dim>108</dim>
				</port>
			</output>
		</layer>
		<layer id="238" name="1108511089_const" type="Const" version="opset1">
			<data element_type="f16" offset="0" shape="" size="2"/>
			<output>
				<port id="0" precision="FP16"/>
			</output>
		</layer>
		<layer id="239" name="1108611090_const" type="Const" version="opset1">
			<data element_type="f16" offset="2926" shape="" size="2"/>
			<output>
				<port id="0" precision="FP16"/>
			</output>
		</layer>
		<layer id="240" name="1108711091_const" type="Const" version="opset1">
			<data element_type="f16" offset="0" shape="" size="2"/>
			<output>
				<port id="0" precision="FP16"/>
			</output>
		</layer>
		<layer id="241" name="1108811092_const" type="Const" version="opset1">
			<data element_type="f16" offset="2926" shape="" size="2"/>
			<output>
				<port id="0" precision="FP16"/>
			</output>
		</layer>
		<layer id="242" name="412/fq_input_0" type="FakeQuantize" version="opset1">
			<data auto_broadcast="numpy" levels="256"/>
			<input>
				<port id="0">
					<dim>1</dim>
					<dim>192</dim>
					<dim>60</dim>
					<dim>108</dim>
				</port>
				<port id="1"/>
				<port id="2"/>
				<port id="3"/>
				<port id="4"/>
			</input>
			<output>
				<port id="5" precision="FP16">
					<dim>1</dim>
					<dim>192</dim>
					<dim>60</dim>
					<dim>108</dim>
				</port>
			</output>
		</layer>
		<layer id="243" name="413/mean/Fused_Mul_5156351565_const309920456/quantized25389_const" type="Const" version="opset1">
			<data element_type="i8" offset="43232" shape="32,192,1,1" size="6144"/>
			<output>
				<port id="0" precision="I8">
					<dim>32</dim>
					<dim>192</dim>
					<dim>1</dim>
					<dim>1</dim>
				</port>
			</output>
		</layer>
		<layer id="244" name="413/mean/Fused_Mul_5156351565_const309920456/quantized/to_f16" type="Convert" version="opset1">
			<data destination_type="f16"/>
			<input>
				<port id="0">
					<dim>32</dim>
					<dim>192</dim>
					<dim>1</dim>
					<dim>1</dim>
				</port>
			</input>
			<output>
				<port id="1" precision="FP16">
					<dim>32</dim>
					<dim>192</dim>
					<dim>1</dim>
					<dim>1</dim>
				</port>
			</output>
		</layer>
		<layer id="245" name="412/fq_weights_1/zero_point25402_const" type="Const" version="opset1">
			<data element_type="f16" offset="49376" shape="32,1,1,1" size="64"/>
			<output>
				<port id="0" precision="FP16">
					<dim>32</dim>
					<dim>1</dim>
					<dim>1</dim>
					<dim>1</dim>
				</port>
			</output>
		</layer>
		<layer id="246" name="412/fq_weights_1/minus_zp" type="Subtract" version="opset1">
			<data auto_broadcast="numpy"/>
			<input>
				<port id="0">
					<dim>32</dim>
					<dim>192</dim>
					<dim>1</dim>
					<dim>1</dim>
				</port>
				<port id="1">
					<dim>32</dim>
					<dim>1</dim>
					<dim>1</dim>
					<dim>1</dim>
				</port>
			</input>
			<output>
				<port id="2" precision="FP16">
					<dim>32</dim>
					<dim>192</dim>
					<dim>1</dim>
					<dim>1</dim>
				</port>
			</output>
		</layer>
		<layer id="247" name="412/fq_weights_1/scale25397_const" type="Const" version="opset1">
			<data element_type="f16" offset="49440" shape="32,1,1,1" size="64"/>
			<output>
				<port id="0" precision="FP16">
					<dim>32</dim>
					<dim>1</dim>
					<dim>1</dim>
					<dim>1</dim>
				</port>
			</output>
		</layer>
		<layer id="248" name="412/fq_weights_1/mulpiply_by_scale" type="Multiply" version="opset1">
			<data auto_broadcast="numpy"/>
			<input>
				<port id="0">
					<dim>32</dim>
					<dim>192</dim>
					<dim>1</dim>
					<dim>1</dim>
				</port>
				<port id="1">
					<dim>32</dim>
					<dim>1</dim>
					<dim>1</dim>
					<dim>1</dim>
				</port>
			</input>
			<output>
				<port id="2" precision="FP16">
					<dim>32</dim>
					<dim>192</dim>
					<dim>1</dim>
					<dim>1</dim>
				</port>
			</output>
		</layer>
		<layer id="249" name="412" type="Convolution" version="opset1">
			<data auto_pad="explicit" dilations="1,1" pads_begin="0,0" pads_end="0,0" strides="1,1"/>
			<input>
				<port id="0">
					<dim>1</dim>
					<dim>192</dim>
					<dim>60</dim>
					<dim>108</dim>
				</port>
				<port id="1">
					<dim>32</dim>
					<dim>192</dim>
					<dim>1</dim>
					<dim>1</dim>
				</port>
			</input>
			<output>
				<port id="2" precision="FP16">
					<dim>1</dim>
					<dim>32</dim>
					<dim>60</dim>
					<dim>108</dim>
				</port>
			</output>
		</layer>
		<layer id="250" name="data_add_472364724148937/EltwiseUnsqueeze49713_const3101_const" type="Const" version="opset1">
			<data element_type="f16" offset="49504" shape="1,32,1,1" size="64"/>
			<output>
				<port id="0" precision="FP16">
					<dim>1</dim>
					<dim>32</dim>
					<dim>1</dim>
					<dim>1</dim>
				</port>
			</output>
		</layer>
		<layer id="251" name="413/variance/Fused_Add_" type="Add" version="opset1">
			<data auto_broadcast="numpy"/>
			<input>
				<port id="0">
					<dim>1</dim>
					<dim>32</dim>
					<dim>60</dim>
					<dim>108</dim>
				</port>
				<port id="1">
					<dim>1</dim>
					<dim>32</dim>
					<dim>1</dim>
					<dim>1</dim>
				</port>
			</input>
			<output>
				<port id="2" names="413" precision="FP16">
					<dim>1</dim>
					<dim>32</dim>
					<dim>60</dim>
					<dim>108</dim>
				</port>
			</output>
		</layer>
		<layer id="252" name="1155511559_const" type="Const" version="opset1">
			<data element_type="f16" offset="49568" shape="" size="2"/>
			<output>
				<port id="0" precision="FP16"/>
			</output>
		</layer>
		<layer id="253" name="1155611560_const" type="Const" version="opset1">
			<data element_type="f16" offset="49570" shape="" size="2"/>
			<output>
				<port id="0" precision="FP16"/>
			</output>
		</layer>
		<layer id="254" name="1155711561_const" type="Const" version="opset1">
			<data element_type="f16" offset="49568" shape="" size="2"/>
			<output>
				<port id="0" precision="FP16"/>
			</output>
		</layer>
		<layer id="255" name="1155811562_const" type="Const" version="opset1">
			<data element_type="f16" offset="49570" shape="" size="2"/>
			<output>
				<port id="0" precision="FP16"/>
			</output>
		</layer>
		<layer id="256" name="414/fq_input_0" type="FakeQuantize" version="opset1">
			<data auto_broadcast="numpy" levels="256"/>
			<input>
				<port id="0">
					<dim>1</dim>
					<dim>32</dim>
					<dim>60</dim>
					<dim>108</dim>
				</port>
				<port id="1"/>
				<port id="2"/>
				<port id="3"/>
				<port id="4"/>
			</input>
			<output>
				<port id="5" precision="FP16">
					<dim>1</dim>
					<dim>32</dim>
					<dim>60</dim>
					<dim>108</dim>
				</port>
			</output>
		</layer>
		<layer id="257" name="414" type="Add" version="opset1">
			<data auto_broadcast="numpy"/>
			<input>
				<port id="0">
					<dim>1</dim>
					<dim>32</dim>
					<dim>60</dim>
					<dim>108</dim>
				</port>
				<port id="1">
					<dim>1</dim>
					<dim>32</dim>
					<dim>60</dim>
					<dim>108</dim>
				</port>
			</input>
			<output>
				<port id="2" names="414" precision="FP16">
					<dim>1</dim>
					<dim>32</dim>
					<dim>60</dim>
					<dim>108</dim>
				</port>
			</output>
		</layer>
		<layer id="258" name="1297512979_const" type="Const" version="opset1">
			<data element_type="f16" offset="49572" shape="" size="2"/>
			<output>
				<port id="0" precision="FP16"/>
			</output>
		</layer>
		<layer id="259" name="1297612980_const" type="Const" version="opset1">
			<data element_type="f16" offset="49574" shape="" size="2"/>
			<output>
				<port id="0" precision="FP16"/>
			</output>
		</layer>
		<layer id="260" name="1297712981_const" type="Const" version="opset1">
			<data element_type="f16" offset="49572" shape="" size="2"/>
			<output>
				<port id="0" precision="FP16"/>
			</output>
		</layer>
		<layer id="261" name="1297812982_const" type="Const" version="opset1">
			<data element_type="f16" offset="49574" shape="" size="2"/>
			<output>
				<port id="0" precision="FP16"/>
			</output>
		</layer>
		<layer id="262" name="415/fq_input_0" type="FakeQuantize" version="opset1">
			<data auto_broadcast="numpy" levels="256"/>
			<input>
				<port id="0">
					<dim>1</dim>
					<dim>32</dim>
					<dim>60</dim>
					<dim>108</dim>
				</port>
				<port id="1"/>
				<port id="2"/>
				<port id="3"/>
				<port id="4"/>
			</input>
			<output>
				<port id="5" precision="FP16">
					<dim>1</dim>
					<dim>32</dim>
					<dim>60</dim>
					<dim>108</dim>
				</port>
			</output>
		</layer>
		<layer id="263" name="416/mean/Fused_Mul_5156751569_const310420458/quantized24285_const" type="Const" version="opset1">
			<data element_type="i8" offset="49576" shape="192,32,1,1" size="6144"/>
			<output>
				<port id="0" precision="I8">
					<dim>192</dim>
					<dim>32</dim>
					<dim>1</dim>
					<dim>1</dim>
				</port>
			</output>
		</layer>
		<layer id="264" name="416/mean/Fused_Mul_5156751569_const310420458/quantized/to_f16" type="Convert" version="opset1">
			<data destination_type="f16"/>
			<input>
				<port id="0">
					<dim>192</dim>
					<dim>32</dim>
					<dim>1</dim>
					<dim>1</dim>
				</port>
			</input>
			<output>
				<port id="1" precision="FP16">
					<dim>192</dim>
					<dim>32</dim>
					<dim>1</dim>
					<dim>1</dim>
				</port>
			</output>
		</layer>
		<layer id="265" name="415/fq_weights_1/zero_point24298_const" type="Const" version="opset1">
			<data element_type="f16" offset="55720" shape="192,1,1,1" size="384"/>
			<output>
				<port id="0" precision="FP16">
					<dim>192</dim>
					<dim>1</dim>
					<dim>1</dim>
					<dim>1</dim>
				</port>
			</output>
		</layer>
		<layer id="266" name="415/fq_weights_1/minus_zp" type="Subtract" version="opset1">
			<data auto_broadcast="numpy"/>
			<input>
				<port id="0">
					<dim>192</dim>
					<dim>32</dim>
					<dim>1</dim>
					<dim>1</dim>
				</port>
				<port id="1">
					<dim>192</dim>
					<dim>1</dim>
					<dim>1</dim>
					<dim>1</dim>
				</port>
			</input>
			<output>
				<port id="2" precision="FP16">
					<dim>192</dim>
					<dim>32</dim>
					<dim>1</dim>
					<dim>1</dim>
				</port>
			</output>
		</layer>
		<layer id="267" name="415/fq_weights_1/scale24293_const" type="Const" version="opset1">
			<data element_type="f16" offset="56104" shape="192,1,1,1" size="384"/>
			<output>
				<port id="0" precision="FP16">
					<dim>192</dim>
					<dim>1</dim>
					<dim>1</dim>
					<dim>1</dim>
				</port>
			</output>
		</layer>
		<layer id="268" name="415/fq_weights_1/mulpiply_by_scale" type="Multiply" version="opset1">
			<data auto_broadcast="numpy"/>
			<input>
				<port id="0">
					<dim>192</dim>
					<dim>32</dim>
					<dim>1</dim>
					<dim>1</dim>
				</port>
				<port id="1">
					<dim>192</dim>
					<dim>1</dim>
					<dim>1</dim>
					<dim>1</dim>
				</port>
			</input>
			<output>
				<port id="2" precision="FP16">
					<dim>192</dim>
					<dim>32</dim>
					<dim>1</dim>
					<dim>1</dim>
				</port>
			</output>
		</layer>
		<layer id="269" name="415" type="Convolution" version="opset1">
			<data auto_pad="explicit" dilations="1,1" pads_begin="0,0" pads_end="0,0" strides="1,1"/>
			<input>
				<port id="0">
					<dim>1</dim>
					<dim>32</dim>
					<dim>60</dim>
					<dim>108</dim>
				</port>
				<port id="1">
					<dim>192</dim>
					<dim>32</dim>
					<dim>1</dim>
					<dim>1</dim>
				</port>
			</input>
			<output>
				<port id="2" precision="FP16">
					<dim>1</dim>
					<dim>192</dim>
					<dim>60</dim>
					<dim>108</dim>
				</port>
			</output>
		</layer>
		<layer id="270" name="data_add_472444724948939/EltwiseUnsqueeze49721_const3106_const" type="Const" version="opset1">
			<data element_type="f16" offset="56488" shape="1,192,1,1" size="384"/>
			<output>
				<port id="0" precision="FP16">
					<dim>1</dim>
					<dim>192</dim>
					<dim>1</dim>
					<dim>1</dim>
				</port>
			</output>
		</layer>
		<layer id="271" name="416/variance/Fused_Add_" type="Add" version="opset1">
			<data auto_broadcast="numpy"/>
			<input>
				<port id="0">
					<dim>1</dim>
					<dim>192</dim>
					<dim>60</dim>
					<dim>108</dim>
				</port>
				<port id="1">
					<dim>1</dim>
					<dim>192</dim>
					<dim>1</dim>
					<dim>1</dim>
				</port>
			</input>
			<output>
				<port id="2" names="416" precision="FP16">
					<dim>1</dim>
					<dim>192</dim>
					<dim>60</dim>
					<dim>108</dim>
				</port>
			</output>
		</layer>
		<layer id="272" name="417" type="Clamp" version="opset1">
			<data max="6.0" min="0.0"/>
			<input>
				<port id="0">
					<dim>1</dim>
					<dim>192</dim>
					<dim>60</dim>
					<dim>108</dim>
				</port>
			</input>
			<output>
				<port id="1" names="417" precision="FP16">
					<dim>1</dim>
					<dim>192</dim>
					<dim>60</dim>
					<dim>108</dim>
				</port>
			</output>
		</layer>
		<layer id="273" name="1236512369_const" type="Const" version="opset1">
			<data element_type="f16" offset="39544" shape="1,192,1,1" size="384"/>
			<output>
				<port id="0" precision="FP16">
					<dim>1</dim>
					<dim>192</dim>
					<dim>1</dim>
					<dim>1</dim>
				</port>
			</output>
		</layer>
		<layer id="274" name="1236612370_const" type="Const" version="opset1">
			<data element_type="f16" offset="56872" shape="1,192,1,1" size="384"/>
			<output>
				<port id="0" precision="FP16">
					<dim>1</dim>
					<dim>192</dim>
					<dim>1</dim>
					<dim>1</dim>
				</port>
			</output>
		</layer>
		<layer id="275" name="1236712371_const" type="Const" version="opset1">
			<data element_type="f16" offset="39544" shape="1,192,1,1" size="384"/>
			<output>
				<port id="0" precision="FP16">
					<dim>1</dim>
					<dim>192</dim>
					<dim>1</dim>
					<dim>1</dim>
				</port>
			</output>
		</layer>
		<layer id="276" name="1236812372_const" type="Const" version="opset1">
			<data element_type="f16" offset="56872" shape="1,192,1,1" size="384"/>
			<output>
				<port id="0" precision="FP16">
					<dim>1</dim>
					<dim>192</dim>
					<dim>1</dim>
					<dim>1</dim>
				</port>
			</output>
		</layer>
		<layer id="277" name="418/fq_input_0" type="FakeQuantize" version="opset1">
			<data auto_broadcast="numpy" levels="256"/>
			<input>
				<port id="0">
					<dim>1</dim>
					<dim>192</dim>
					<dim>60</dim>
					<dim>108</dim>
				</port>
				<port id="1">
					<dim>1</dim>
					<dim>192</dim>
					<dim>1</dim>
					<dim>1</dim>
				</port>
				<port id="2">
					<dim>1</dim>
					<dim>192</dim>
					<dim>1</dim>
					<dim>1</dim>
				</port>
				<port id="3">
					<dim>1</dim>
					<dim>192</dim>
					<dim>1</dim>
					<dim>1</dim>
				</port>
				<port id="4">
					<dim>1</dim>
					<dim>192</dim>
					<dim>1</dim>
					<dim>1</dim>
				</port>
			</input>
			<output>
				<port id="5" precision="FP16">
					<dim>1</dim>
					<dim>192</dim>
					<dim>60</dim>
					<dim>108</dim>
				</port>
			</output>
		</layer>
		<layer id="278" name="101606101609_const310920460/quantized23925_const" type="Const" version="opset1">
			<data element_type="i8" offset="57256" shape="192,1,3,3" size="1728"/>
			<output>
				<port id="0" precision="I8">
					<dim>192</dim>
					<dim>1</dim>
					<dim>3</dim>
					<dim>3</dim>
				</port>
			</output>
		</layer>
		<layer id="279" name="101606101609_const310920460/quantized/to_f16" type="Convert" version="opset1">
			<data destination_type="f16"/>
			<input>
				<port id="0">
					<dim>192</dim>
					<dim>1</dim>
					<dim>3</dim>
					<dim>3</dim>
				</port>
			</input>
			<output>
				<port id="1" precision="FP16">
					<dim>192</dim>
					<dim>1</dim>
					<dim>3</dim>
					<dim>3</dim>
				</port>
			</output>
		</layer>
		<layer id="280" name="418/fq_weights_1/zero_point23938_const" type="Const" version="opset1">
			<data element_type="f16" offset="58984" shape="192,1,1,1" size="384"/>
			<output>
				<port id="0" precision="FP16">
					<dim>192</dim>
					<dim>1</dim>
					<dim>1</dim>
					<dim>1</dim>
				</port>
			</output>
		</layer>
		<layer id="281" name="418/fq_weights_1/minus_zp" type="Subtract" version="opset1">
			<data auto_broadcast="numpy"/>
			<input>
				<port id="0">
					<dim>192</dim>
					<dim>1</dim>
					<dim>3</dim>
					<dim>3</dim>
				</port>
				<port id="1">
					<dim>192</dim>
					<dim>1</dim>
					<dim>1</dim>
					<dim>1</dim>
				</port>
			</input>
			<output>
				<port id="2" precision="FP16">
					<dim>192</dim>
					<dim>1</dim>
					<dim>3</dim>
					<dim>3</dim>
				</port>
			</output>
		</layer>
		<layer id="282" name="418/fq_weights_1/scale23933_const" type="Const" version="opset1">
			<data element_type="f16" offset="59368" shape="192,1,1,1" size="384"/>
			<output>
				<port id="0" precision="FP16">
					<dim>192</dim>
					<dim>1</dim>
					<dim>1</dim>
					<dim>1</dim>
				</port>
			</output>
		</layer>
		<layer id="283" name="418/fq_weights_1/mulpiply_by_scale" type="Multiply" version="opset1">
			<data auto_broadcast="numpy"/>
			<input>
				<port id="0">
					<dim>192</dim>
					<dim>1</dim>
					<dim>3</dim>
					<dim>3</dim>
				</port>
				<port id="1">
					<dim>192</dim>
					<dim>1</dim>
					<dim>1</dim>
					<dim>1</dim>
				</port>
			</input>
			<output>
				<port id="2" precision="FP16">
					<dim>192</dim>
					<dim>1</dim>
					<dim>3</dim>
					<dim>3</dim>
				</port>
			</output>
		</layer>
		<layer id="284" name="30994/value30996_const" type="Const" version="opset1">
			<data element_type="i64" offset="42808" shape="5" size="40"/>
			<output>
				<port id="0" precision="I64">
					<dim>5</dim>
				</port>
			</output>
		</layer>
		<layer id="285" name="30994" type="Reshape" version="opset1">
			<data special_zero="true"/>
			<input>
				<port id="0">
					<dim>192</dim>
					<dim>1</dim>
					<dim>3</dim>
					<dim>3</dim>
				</port>
				<port id="1">
					<dim>5</dim>
				</port>
			</input>
			<output>
				<port id="2" precision="FP16">
					<dim>192</dim>
					<dim>1</dim>
					<dim>1</dim>
					<dim>3</dim>
					<dim>3</dim>
				</port>
			</output>
		</layer>
		<layer id="286" name="418" type="GroupConvolution" version="opset1">
			<data auto_pad="explicit" dilations="1,1" pads_begin="1,1" pads_end="1,1" strides="1,1"/>
			<input>
				<port id="0">
					<dim>1</dim>
					<dim>192</dim>
					<dim>60</dim>
					<dim>108</dim>
				</port>
				<port id="1">
					<dim>192</dim>
					<dim>1</dim>
					<dim>1</dim>
					<dim>3</dim>
					<dim>3</dim>
				</port>
			</input>
			<output>
				<port id="2" precision="FP16">
					<dim>1</dim>
					<dim>192</dim>
					<dim>60</dim>
					<dim>108</dim>
				</port>
			</output>
		</layer>
		<layer id="287" name="data_add_472524725748941/EltwiseUnsqueeze49729_const3111_const" type="Const" version="opset1">
			<data element_type="f16" offset="59752" shape="1,192,1,1" size="384"/>
			<output>
				<port id="0" precision="FP16">
					<dim>1</dim>
					<dim>192</dim>
					<dim>1</dim>
					<dim>1</dim>
				</port>
			</output>
		</layer>
		<layer id="288" name="419/variance/Fused_Add_" type="Add" version="opset1">
			<data auto_broadcast="numpy"/>
			<input>
				<port id="0">
					<dim>1</dim>
					<dim>192</dim>
					<dim>60</dim>
					<dim>108</dim>
				</port>
				<port id="1">
					<dim>1</dim>
					<dim>192</dim>
					<dim>1</dim>
					<dim>1</dim>
				</port>
			</input>
			<output>
				<port id="2" names="419" precision="FP16">
					<dim>1</dim>
					<dim>192</dim>
					<dim>60</dim>
					<dim>108</dim>
				</port>
			</output>
		</layer>
		<layer id="289" name="420" type="Clamp" version="opset1">
			<data max="6.0" min="0.0"/>
			<input>
				<port id="0">
					<dim>1</dim>
					<dim>192</dim>
					<dim>60</dim>
					<dim>108</dim>
				</port>
			</input>
			<output>
				<port id="1" names="420" precision="FP16">
					<dim>1</dim>
					<dim>192</dim>
					<dim>60</dim>
					<dim>108</dim>
				</port>
			</output>
		</layer>
		<layer id="290" name="1128511289_const" type="Const" version="opset1">
			<data element_type="f16" offset="0" shape="" size="2"/>
			<output>
				<port id="0" precision="FP16"/>
			</output>
		</layer>
		<layer id="291" name="1128611290_const" type="Const" version="opset1">
			<data element_type="f16" offset="60136" shape="" size="2"/>
			<output>
				<port id="0" precision="FP16"/>
			</output>
		</layer>
		<layer id="292" name="1128711291_const" type="Const" version="opset1">
			<data element_type="f16" offset="0" shape="" size="2"/>
			<output>
				<port id="0" precision="FP16"/>
			</output>
		</layer>
		<layer id="293" name="1128811292_const" type="Const" version="opset1">
			<data element_type="f16" offset="60136" shape="" size="2"/>
			<output>
				<port id="0" precision="FP16"/>
			</output>
		</layer>
		<layer id="294" name="421/fq_input_0" type="FakeQuantize" version="opset1">
			<data auto_broadcast="numpy" levels="256"/>
			<input>
				<port id="0">
					<dim>1</dim>
					<dim>192</dim>
					<dim>60</dim>
					<dim>108</dim>
				</port>
				<port id="1"/>
				<port id="2"/>
				<port id="3"/>
				<port id="4"/>
			</input>
			<output>
				<port id="5" precision="FP16">
					<dim>1</dim>
					<dim>192</dim>
					<dim>60</dim>
					<dim>108</dim>
				</port>
			</output>
		</layer>
		<layer id="295" name="422/mean/Fused_Mul_5157551577_const311420462/quantized24741_const" type="Const" version="opset1">
			<data element_type="i8" offset="60138" shape="32,192,1,1" size="6144"/>
			<output>
				<port id="0" precision="I8">
					<dim>32</dim>
					<dim>192</dim>
					<dim>1</dim>
					<dim>1</dim>
				</port>
			</output>
		</layer>
		<layer id="296" name="422/mean/Fused_Mul_5157551577_const311420462/quantized/to_f16" type="Convert" version="opset1">
			<data destination_type="f16"/>
			<input>
				<port id="0">
					<dim>32</dim>
					<dim>192</dim>
					<dim>1</dim>
					<dim>1</dim>
				</port>
			</input>
			<output>
				<port id="1" precision="FP16">
					<dim>32</dim>
					<dim>192</dim>
					<dim>1</dim>
					<dim>1</dim>
				</port>
			</output>
		</layer>
		<layer id="297" name="421/fq_weights_1/zero_point24754_const" type="Const" version="opset1">
			<data element_type="f16" offset="66282" shape="32,1,1,1" size="64"/>
			<output>
				<port id="0" precision="FP16">
					<dim>32</dim>
					<dim>1</dim>
					<dim>1</dim>
					<dim>1</dim>
				</port>
			</output>
		</layer>
		<layer id="298" name="421/fq_weights_1/minus_zp" type="Subtract" version="opset1">
			<data auto_broadcast="numpy"/>
			<input>
				<port id="0">
					<dim>32</dim>
					<dim>192</dim>
					<dim>1</dim>
					<dim>1</dim>
				</port>
				<port id="1">
					<dim>32</dim>
					<dim>1</dim>
					<dim>1</dim>
					<dim>1</dim>
				</port>
			</input>
			<output>
				<port id="2" precision="FP16">
					<dim>32</dim>
					<dim>192</dim>
					<dim>1</dim>
					<dim>1</dim>
				</port>
			</output>
		</layer>
		<layer id="299" name="421/fq_weights_1/scale24749_const" type="Const" version="opset1">
			<data element_type="f16" offset="66346" shape="32,1,1,1" size="64"/>
			<output>
				<port id="0" precision="FP16">
					<dim>32</dim>
					<dim>1</dim>
					<dim>1</dim>
					<dim>1</dim>
				</port>
			</output>
		</layer>
		<layer id="300" name="421/fq_weights_1/mulpiply_by_scale" type="Multiply" version="opset1">
			<data auto_broadcast="numpy"/>
			<input>
				<port id="0">
					<dim>32</dim>
					<dim>192</dim>
					<dim>1</dim>
					<dim>1</dim>
				</port>
				<port id="1">
					<dim>32</dim>
					<dim>1</dim>
					<dim>1</dim>
					<dim>1</dim>
				</port>
			</input>
			<output>
				<port id="2" precision="FP16">
					<dim>32</dim>
					<dim>192</dim>
					<dim>1</dim>
					<dim>1</dim>
				</port>
			</output>
		</layer>
		<layer id="301" name="421" type="Convolution" version="opset1">
			<data auto_pad="explicit" dilations="1,1" pads_begin="0,0" pads_end="0,0" strides="1,1"/>
			<input>
				<port id="0">
					<dim>1</dim>
					<dim>192</dim>
					<dim>60</dim>
					<dim>108</dim>
				</port>
				<port id="1">
					<dim>32</dim>
					<dim>192</dim>
					<dim>1</dim>
					<dim>1</dim>
				</port>
			</input>
			<output>
				<port id="2" precision="FP16">
					<dim>1</dim>
					<dim>32</dim>
					<dim>60</dim>
					<dim>108</dim>
				</port>
			</output>
		</layer>
		<layer id="302" name="data_add_472604726548943/EltwiseUnsqueeze49737_const3116_const" type="Const" version="opset1">
			<data element_type="f16" offset="66410" shape="1,32,1,1" size="64"/>
			<output>
				<port id="0" precision="FP16">
					<dim>1</dim>
					<dim>32</dim>
					<dim>1</dim>
					<dim>1</dim>
				</port>
			</output>
		</layer>
		<layer id="303" name="422/variance/Fused_Add_" type="Add" version="opset1">
			<data auto_broadcast="numpy"/>
			<input>
				<port id="0">
					<dim>1</dim>
					<dim>32</dim>
					<dim>60</dim>
					<dim>108</dim>
				</port>
				<port id="1">
					<dim>1</dim>
					<dim>32</dim>
					<dim>1</dim>
					<dim>1</dim>
				</port>
			</input>
			<output>
				<port id="2" names="422" precision="FP16">
					<dim>1</dim>
					<dim>32</dim>
					<dim>60</dim>
					<dim>108</dim>
				</port>
			</output>
		</layer>
		<layer id="304" name="1242512429_const" type="Const" version="opset1">
			<data element_type="f16" offset="66474" shape="" size="2"/>
			<output>
				<port id="0" precision="FP16"/>
			</output>
		</layer>
		<layer id="305" name="1242612430_const" type="Const" version="opset1">
			<data element_type="f16" offset="66476" shape="" size="2"/>
			<output>
				<port id="0" precision="FP16"/>
			</output>
		</layer>
		<layer id="306" name="1242712431_const" type="Const" version="opset1">
			<data element_type="f16" offset="66474" shape="" size="2"/>
			<output>
				<port id="0" precision="FP16"/>
			</output>
		</layer>
		<layer id="307" name="1242812432_const" type="Const" version="opset1">
			<data element_type="f16" offset="66476" shape="" size="2"/>
			<output>
				<port id="0" precision="FP16"/>
			</output>
		</layer>
		<layer id="308" name="423/fq_input_0" type="FakeQuantize" version="opset1">
			<data auto_broadcast="numpy" levels="256"/>
			<input>
				<port id="0">
					<dim>1</dim>
					<dim>32</dim>
					<dim>60</dim>
					<dim>108</dim>
				</port>
				<port id="1"/>
				<port id="2"/>
				<port id="3"/>
				<port id="4"/>
			</input>
			<output>
				<port id="5" precision="FP16">
					<dim>1</dim>
					<dim>32</dim>
					<dim>60</dim>
					<dim>108</dim>
				</port>
			</output>
		</layer>
		<layer id="309" name="423" type="Add" version="opset1">
			<data auto_broadcast="numpy"/>
			<input>
				<port id="0">
					<dim>1</dim>
					<dim>32</dim>
					<dim>60</dim>
					<dim>108</dim>
				</port>
				<port id="1">
					<dim>1</dim>
					<dim>32</dim>
					<dim>60</dim>
					<dim>108</dim>
				</port>
			</input>
			<output>
				<port id="2" names="423" precision="FP16">
					<dim>1</dim>
					<dim>32</dim>
					<dim>60</dim>
					<dim>108</dim>
				</port>
			</output>
		</layer>
		<layer id="310" name="1161511619_const" type="Const" version="opset1">
			<data element_type="f16" offset="66478" shape="" size="2"/>
			<output>
				<port id="0" precision="FP16"/>
			</output>
		</layer>
		<layer id="311" name="1161611620_const" type="Const" version="opset1">
			<data element_type="f16" offset="66480" shape="" size="2"/>
			<output>
				<port id="0" precision="FP16"/>
			</output>
		</layer>
		<layer id="312" name="1161711621_const" type="Const" version="opset1">
			<data element_type="f16" offset="66478" shape="" size="2"/>
			<output>
				<port id="0" precision="FP16"/>
			</output>
		</layer>
		<layer id="313" name="1161811622_const" type="Const" version="opset1">
			<data element_type="f16" offset="66480" shape="" size="2"/>
			<output>
				<port id="0" precision="FP16"/>
			</output>
		</layer>
		<layer id="314" name="424/fq_input_0" type="FakeQuantize" version="opset1">
			<data auto_broadcast="numpy" levels="256"/>
			<input>
				<port id="0">
					<dim>1</dim>
					<dim>32</dim>
					<dim>60</dim>
					<dim>108</dim>
				</port>
				<port id="1"/>
				<port id="2"/>
				<port id="3"/>
				<port id="4"/>
			</input>
			<output>
				<port id="5" precision="FP16">
					<dim>1</dim>
					<dim>32</dim>
					<dim>60</dim>
					<dim>108</dim>
				</port>
			</output>
		</layer>
		<layer id="315" name="neck.lateral_convs.0.conv.weight/quantized25365_const" type="Const" version="opset1">
			<data element_type="i8" offset="66482" shape="32,32,1,1" size="1024"/>
			<output>
				<port id="0" precision="I8">
					<dim>32</dim>
					<dim>32</dim>
					<dim>1</dim>
					<dim>1</dim>
				</port>
			</output>
		</layer>
		<layer id="316" name="neck.lateral_convs.0.conv.weight/quantized/to_f16" type="Convert" version="opset1">
			<data destination_type="f16"/>
			<input>
				<port id="0">
					<dim>32</dim>
					<dim>32</dim>
					<dim>1</dim>
					<dim>1</dim>
				</port>
			</input>
			<output>
				<port id="1" precision="FP16">
					<dim>32</dim>
					<dim>32</dim>
					<dim>1</dim>
					<dim>1</dim>
				</port>
			</output>
		</layer>
		<layer id="317" name="519/WithoutBiases/fq_weights_1/zero_point25378_const" type="Const" version="opset1">
			<data element_type="f16" offset="67506" shape="32,1,1,1" size="64"/>
			<output>
				<port id="0" precision="FP16">
					<dim>32</dim>
					<dim>1</dim>
					<dim>1</dim>
					<dim>1</dim>
				</port>
			</output>
		</layer>
		<layer id="318" name="519/WithoutBiases/fq_weights_1/minus_zp" type="Subtract" version="opset1">
			<data auto_broadcast="numpy"/>
			<input>
				<port id="0">
					<dim>32</dim>
					<dim>32</dim>
					<dim>1</dim>
					<dim>1</dim>
				</port>
				<port id="1">
					<dim>32</dim>
					<dim>1</dim>
					<dim>1</dim>
					<dim>1</dim>
				</port>
			</input>
			<output>
				<port id="2" precision="FP16">
					<dim>32</dim>
					<dim>32</dim>
					<dim>1</dim>
					<dim>1</dim>
				</port>
			</output>
		</layer>
		<layer id="319" name="519/WithoutBiases/fq_weights_1/scale25373_const" type="Const" version="opset1">
			<data element_type="f16" offset="67570" shape="32,1,1,1" size="64"/>
			<output>
				<port id="0" precision="FP16">
					<dim>32</dim>
					<dim>1</dim>
					<dim>1</dim>
					<dim>1</dim>
				</port>
			</output>
		</layer>
		<layer id="320" name="519/WithoutBiases/fq_weights_1/mulpiply_by_scale" type="Multiply" version="opset1">
			<data auto_broadcast="numpy"/>
			<input>
				<port id="0">
					<dim>32</dim>
					<dim>32</dim>
					<dim>1</dim>
					<dim>1</dim>
				</port>
				<port id="1">
					<dim>32</dim>
					<dim>1</dim>
					<dim>1</dim>
					<dim>1</dim>
				</port>
			</input>
			<output>
				<port id="2" precision="FP16">
					<dim>32</dim>
					<dim>32</dim>
					<dim>1</dim>
					<dim>1</dim>
				</port>
			</output>
		</layer>
		<layer id="321" name="519/WithoutBiases" type="Convolution" version="opset1">
			<data auto_pad="explicit" dilations="1,1" pads_begin="0,0" pads_end="0,0" strides="1,1"/>
			<input>
				<port id="0">
					<dim>1</dim>
					<dim>32</dim>
					<dim>60</dim>
					<dim>108</dim>
				</port>
				<port id="1">
					<dim>32</dim>
					<dim>32</dim>
					<dim>1</dim>
					<dim>1</dim>
				</port>
			</input>
			<output>
				<port id="2" precision="FP16">
					<dim>1</dim>
					<dim>32</dim>
					<dim>60</dim>
					<dim>108</dim>
				</port>
			</output>
		</layer>
		<layer id="322" name="519/Dims2846648805/EltwiseUnsqueeze49505_const3121_const" type="Const" version="opset1">
			<data element_type="f16" offset="67634" shape="1,32,1,1" size="64"/>
			<output>
				<port id="0" precision="FP16">
					<dim>1</dim>
					<dim>32</dim>
					<dim>1</dim>
					<dim>1</dim>
				</port>
			</output>
		</layer>
		<layer id="323" name="519" type="Add" version="opset1">
			<data auto_broadcast="numpy"/>
			<input>
				<port id="0">
					<dim>1</dim>
					<dim>32</dim>
					<dim>60</dim>
					<dim>108</dim>
				</port>
				<port id="1">
					<dim>1</dim>
					<dim>32</dim>
					<dim>1</dim>
					<dim>1</dim>
				</port>
			</input>
			<output>
				<port id="2" names="519" precision="FP16">
					<dim>1</dim>
					<dim>32</dim>
					<dim>60</dim>
					<dim>108</dim>
				</port>
			</output>
		</layer>
		<layer id="324" name="1060510609_const" type="Const" version="opset1">
			<data element_type="f16" offset="67698" shape="" size="2"/>
			<output>
				<port id="0" precision="FP16"/>
			</output>
		</layer>
		<layer id="325" name="1060610610_const" type="Const" version="opset1">
			<data element_type="f16" offset="67700" shape="" size="2"/>
			<output>
				<port id="0" precision="FP16"/>
			</output>
		</layer>
		<layer id="326" name="1060710611_const" type="Const" version="opset1">
			<data element_type="f16" offset="67698" shape="" size="2"/>
			<output>
				<port id="0" precision="FP16"/>
			</output>
		</layer>
		<layer id="327" name="1060810612_const" type="Const" version="opset1">
			<data element_type="f16" offset="67700" shape="" size="2"/>
			<output>
				<port id="0" precision="FP16"/>
			</output>
		</layer>
		<layer id="328" name="563/fq_input_0" type="FakeQuantize" version="opset1">
			<data auto_broadcast="numpy" levels="256"/>
			<input>
				<port id="0">
					<dim>1</dim>
					<dim>32</dim>
					<dim>60</dim>
					<dim>108</dim>
				</port>
				<port id="1"/>
				<port id="2"/>
				<port id="3"/>
				<port id="4"/>
			</input>
			<output>
				<port id="5" precision="FP16">
					<dim>1</dim>
					<dim>32</dim>
					<dim>60</dim>
					<dim>108</dim>
				</port>
			</output>
		</layer>
		<layer id="329" name="425/mean/Fused_Mul_5157951581_const312320466/quantized23325_const" type="Const" version="opset1">
			<data element_type="i8" offset="67702" shape="192,32,1,1" size="6144"/>
			<output>
				<port id="0" precision="I8">
					<dim>192</dim>
					<dim>32</dim>
					<dim>1</dim>
					<dim>1</dim>
				</port>
			</output>
		</layer>
		<layer id="330" name="425/mean/Fused_Mul_5157951581_const312320466/quantized/to_f16" type="Convert" version="opset1">
			<data destination_type="f16"/>
			<input>
				<port id="0">
					<dim>192</dim>
					<dim>32</dim>
					<dim>1</dim>
					<dim>1</dim>
				</port>
			</input>
			<output>
				<port id="1" precision="FP16">
					<dim>192</dim>
					<dim>32</dim>
					<dim>1</dim>
					<dim>1</dim>
				</port>
			</output>
		</layer>
		<layer id="331" name="424/fq_weights_1/zero_point23338_const" type="Const" version="opset1">
			<data element_type="f16" offset="73846" shape="192,1,1,1" size="384"/>
			<output>
				<port id="0" precision="FP16">
					<dim>192</dim>
					<dim>1</dim>
					<dim>1</dim>
					<dim>1</dim>
				</port>
			</output>
		</layer>
		<layer id="332" name="424/fq_weights_1/minus_zp" type="Subtract" version="opset1">
			<data auto_broadcast="numpy"/>
			<input>
				<port id="0">
					<dim>192</dim>
					<dim>32</dim>
					<dim>1</dim>
					<dim>1</dim>
				</port>
				<port id="1">
					<dim>192</dim>
					<dim>1</dim>
					<dim>1</dim>
					<dim>1</dim>
				</port>
			</input>
			<output>
				<port id="2" precision="FP16">
					<dim>192</dim>
					<dim>32</dim>
					<dim>1</dim>
					<dim>1</dim>
				</port>
			</output>
		</layer>
		<layer id="333" name="424/fq_weights_1/scale23333_const" type="Const" version="opset1">
			<data element_type="f16" offset="74230" shape="192,1,1,1" size="384"/>
			<output>
				<port id="0" precision="FP16">
					<dim>192</dim>
					<dim>1</dim>
					<dim>1</dim>
					<dim>1</dim>
				</port>
			</output>
		</layer>
		<layer id="334" name="424/fq_weights_1/mulpiply_by_scale" type="Multiply" version="opset1">
			<data auto_broadcast="numpy"/>
			<input>
				<port id="0">
					<dim>192</dim>
					<dim>32</dim>
					<dim>1</dim>
					<dim>1</dim>
				</port>
				<port id="1">
					<dim>192</dim>
					<dim>1</dim>
					<dim>1</dim>
					<dim>1</dim>
				</port>
			</input>
			<output>
				<port id="2" precision="FP16">
					<dim>192</dim>
					<dim>32</dim>
					<dim>1</dim>
					<dim>1</dim>
				</port>
			</output>
		</layer>
		<layer id="335" name="424" type="Convolution" version="opset1">
			<data auto_pad="explicit" dilations="1,1" pads_begin="0,0" pads_end="0,0" strides="1,1"/>
			<input>
				<port id="0">
					<dim>1</dim>
					<dim>32</dim>
					<dim>60</dim>
					<dim>108</dim>
				</port>
				<port id="1">
					<dim>192</dim>
					<dim>32</dim>
					<dim>1</dim>
					<dim>1</dim>
				</port>
			</input>
			<output>
				<port id="2" precision="FP16">
					<dim>1</dim>
					<dim>192</dim>
					<dim>60</dim>
					<dim>108</dim>
				</port>
			</output>
		</layer>
		<layer id="336" name="data_add_472684727348945/EltwiseUnsqueeze49745_const3125_const" type="Const" version="opset1">
			<data element_type="f16" offset="74614" shape="1,192,1,1" size="384"/>
			<output>
				<port id="0" precision="FP16">
					<dim>1</dim>
					<dim>192</dim>
					<dim>1</dim>
					<dim>1</dim>
				</port>
			</output>
		</layer>
		<layer id="337" name="425/variance/Fused_Add_" type="Add" version="opset1">
			<data auto_broadcast="numpy"/>
			<input>
				<port id="0">
					<dim>1</dim>
					<dim>192</dim>
					<dim>60</dim>
					<dim>108</dim>
				</port>
				<port id="1">
					<dim>1</dim>
					<dim>192</dim>
					<dim>1</dim>
					<dim>1</dim>
				</port>
			</input>
			<output>
				<port id="2" names="425" precision="FP16">
					<dim>1</dim>
					<dim>192</dim>
					<dim>60</dim>
					<dim>108</dim>
				</port>
			</output>
		</layer>
		<layer id="338" name="426" type="Clamp" version="opset1">
			<data max="6.0" min="0.0"/>
			<input>
				<port id="0">
					<dim>1</dim>
					<dim>192</dim>
					<dim>60</dim>
					<dim>108</dim>
				</port>
			</input>
			<output>
				<port id="1" names="426" precision="FP16">
					<dim>1</dim>
					<dim>192</dim>
					<dim>60</dim>
					<dim>108</dim>
				</port>
			</output>
		</layer>
		<layer id="339" name="1039510399_const" type="Const" version="opset1">
			<data element_type="f16" offset="39544" shape="1,192,1,1" size="384"/>
			<output>
				<port id="0" precision="FP16">
					<dim>1</dim>
					<dim>192</dim>
					<dim>1</dim>
					<dim>1</dim>
				</port>
			</output>
		</layer>
		<layer id="340" name="1039610400_const" type="Const" version="opset1">
			<data element_type="f16" offset="74998" shape="1,192,1,1" size="384"/>
			<output>
				<port id="0" precision="FP16">
					<dim>1</dim>
					<dim>192</dim>
					<dim>1</dim>
					<dim>1</dim>
				</port>
			</output>
		</layer>
		<layer id="341" name="1039710401_const" type="Const" version="opset1">
			<data element_type="f16" offset="39544" shape="1,192,1,1" size="384"/>
			<output>
				<port id="0" precision="FP16">
					<dim>1</dim>
					<dim>192</dim>
					<dim>1</dim>
					<dim>1</dim>
				</port>
			</output>
		</layer>
		<layer id="342" name="1039810402_const" type="Const" version="opset1">
			<data element_type="f16" offset="74998" shape="1,192,1,1" size="384"/>
			<output>
				<port id="0" precision="FP16">
					<dim>1</dim>
					<dim>192</dim>
					<dim>1</dim>
					<dim>1</dim>
				</port>
			</output>
		</layer>
		<layer id="343" name="427/fq_input_0" type="FakeQuantize" version="opset1">
			<data auto_broadcast="numpy" levels="256"/>
			<input>
				<port id="0">
					<dim>1</dim>
					<dim>192</dim>
					<dim>60</dim>
					<dim>108</dim>
				</port>
				<port id="1">
					<dim>1</dim>
					<dim>192</dim>
					<dim>1</dim>
					<dim>1</dim>
				</port>
				<port id="2">
					<dim>1</dim>
					<dim>192</dim>
					<dim>1</dim>
					<dim>1</dim>
				</port>
				<port id="3">
					<dim>1</dim>
					<dim>192</dim>
					<dim>1</dim>
					<dim>1</dim>
				</port>
				<port id="4">
					<dim>1</dim>
					<dim>192</dim>
					<dim>1</dim>
					<dim>1</dim>
				</port>
			</input>
			<output>
				<port id="5" precision="FP16">
					<dim>1</dim>
					<dim>192</dim>
					<dim>60</dim>
					<dim>108</dim>
				</port>
			</output>
		</layer>
		<layer id="344" name="101630101633_const312820468/quantized25221_const" type="Const" version="opset1">
			<data element_type="i8" offset="75382" shape="192,1,3,3" size="1728"/>
			<output>
				<port id="0" precision="I8">
					<dim>192</dim>
					<dim>1</dim>
					<dim>3</dim>
					<dim>3</dim>
				</port>
			</output>
		</layer>
		<layer id="345" name="101630101633_const312820468/quantized/to_f16" type="Convert" version="opset1">
			<data destination_type="f16"/>
			<input>
				<port id="0">
					<dim>192</dim>
					<dim>1</dim>
					<dim>3</dim>
					<dim>3</dim>
				</port>
			</input>
			<output>
				<port id="1" precision="FP16">
					<dim>192</dim>
					<dim>1</dim>
					<dim>3</dim>
					<dim>3</dim>
				</port>
			</output>
		</layer>
		<layer id="346" name="427/fq_weights_1/zero_point25234_const" type="Const" version="opset1">
			<data element_type="f16" offset="77110" shape="192,1,1,1" size="384"/>
			<output>
				<port id="0" precision="FP16">
					<dim>192</dim>
					<dim>1</dim>
					<dim>1</dim>
					<dim>1</dim>
				</port>
			</output>
		</layer>
		<layer id="347" name="427/fq_weights_1/minus_zp" type="Subtract" version="opset1">
			<data auto_broadcast="numpy"/>
			<input>
				<port id="0">
					<dim>192</dim>
					<dim>1</dim>
					<dim>3</dim>
					<dim>3</dim>
				</port>
				<port id="1">
					<dim>192</dim>
					<dim>1</dim>
					<dim>1</dim>
					<dim>1</dim>
				</port>
			</input>
			<output>
				<port id="2" precision="FP16">
					<dim>192</dim>
					<dim>1</dim>
					<dim>3</dim>
					<dim>3</dim>
				</port>
			</output>
		</layer>
		<layer id="348" name="427/fq_weights_1/scale25229_const" type="Const" version="opset1">
			<data element_type="f16" offset="77494" shape="192,1,1,1" size="384"/>
			<output>
				<port id="0" precision="FP16">
					<dim>192</dim>
					<dim>1</dim>
					<dim>1</dim>
					<dim>1</dim>
				</port>
			</output>
		</layer>
		<layer id="349" name="427/fq_weights_1/mulpiply_by_scale" type="Multiply" version="opset1">
			<data auto_broadcast="numpy"/>
			<input>
				<port id="0">
					<dim>192</dim>
					<dim>1</dim>
					<dim>3</dim>
					<dim>3</dim>
				</port>
				<port id="1">
					<dim>192</dim>
					<dim>1</dim>
					<dim>1</dim>
					<dim>1</dim>
				</port>
			</input>
			<output>
				<port id="2" precision="FP16">
					<dim>192</dim>
					<dim>1</dim>
					<dim>3</dim>
					<dim>3</dim>
				</port>
			</output>
		</layer>
		<layer id="350" name="30962/value30964_const" type="Const" version="opset1">
			<data element_type="i64" offset="42808" shape="5" size="40"/>
			<output>
				<port id="0" precision="I64">
					<dim>5</dim>
				</port>
			</output>
		</layer>
		<layer id="351" name="30962" type="Reshape" version="opset1">
			<data special_zero="true"/>
			<input>
				<port id="0">
					<dim>192</dim>
					<dim>1</dim>
					<dim>3</dim>
					<dim>3</dim>
				</port>
				<port id="1">
					<dim>5</dim>
				</port>
			</input>
			<output>
				<port id="2" precision="FP16">
					<dim>192</dim>
					<dim>1</dim>
					<dim>1</dim>
					<dim>3</dim>
					<dim>3</dim>
				</port>
			</output>
		</layer>
		<layer id="352" name="427" type="GroupConvolution" version="opset1">
			<data auto_pad="explicit" dilations="1,1" pads_begin="1,1" pads_end="1,1" strides="2,2"/>
			<input>
				<port id="0">
					<dim>1</dim>
					<dim>192</dim>
					<dim>60</dim>
					<dim>108</dim>
				</port>
				<port id="1">
					<dim>192</dim>
					<dim>1</dim>
					<dim>1</dim>
					<dim>3</dim>
					<dim>3</dim>
				</port>
			</input>
			<output>
				<port id="2" precision="FP16">
					<dim>1</dim>
					<dim>192</dim>
					<dim>30</dim>
					<dim>54</dim>
				</port>
			</output>
		</layer>
		<layer id="353" name="data_add_472764728148947/EltwiseUnsqueeze49753_const3130_const" type="Const" version="opset1">
			<data element_type="f16" offset="77878" shape="1,192,1,1" size="384"/>
			<output>
				<port id="0" precision="FP16">
					<dim>1</dim>
					<dim>192</dim>
					<dim>1</dim>
					<dim>1</dim>
				</port>
			</output>
		</layer>
		<layer id="354" name="428/variance/Fused_Add_" type="Add" version="opset1">
			<data auto_broadcast="numpy"/>
			<input>
				<port id="0">
					<dim>1</dim>
					<dim>192</dim>
					<dim>30</dim>
					<dim>54</dim>
				</port>
				<port id="1">
					<dim>1</dim>
					<dim>192</dim>
					<dim>1</dim>
					<dim>1</dim>
				</port>
			</input>
			<output>
				<port id="2" names="428" precision="FP16">
					<dim>1</dim>
					<dim>192</dim>
					<dim>30</dim>
					<dim>54</dim>
				</port>
			</output>
		</layer>
		<layer id="355" name="429" type="Clamp" version="opset1">
			<data max="6.0" min="0.0"/>
			<input>
				<port id="0">
					<dim>1</dim>
					<dim>192</dim>
					<dim>30</dim>
					<dim>54</dim>
				</port>
			</input>
			<output>
				<port id="1" names="429" precision="FP16">
					<dim>1</dim>
					<dim>192</dim>
					<dim>30</dim>
					<dim>54</dim>
				</port>
			</output>
		</layer>
		<layer id="356" name="1247512479_const" type="Const" version="opset1">
			<data element_type="f16" offset="0" shape="" size="2"/>
			<output>
				<port id="0" precision="FP16"/>
			</output>
		</layer>
		<layer id="357" name="1247612480_const" type="Const" version="opset1">
			<data element_type="f16" offset="78262" shape="" size="2"/>
			<output>
				<port id="0" precision="FP16"/>
			</output>
		</layer>
		<layer id="358" name="1247712481_const" type="Const" version="opset1">
			<data element_type="f16" offset="0" shape="" size="2"/>
			<output>
				<port id="0" precision="FP16"/>
			</output>
		</layer>
		<layer id="359" name="1247812482_const" type="Const" version="opset1">
			<data element_type="f16" offset="78262" shape="" size="2"/>
			<output>
				<port id="0" precision="FP16"/>
			</output>
		</layer>
		<layer id="360" name="430/fq_input_0" type="FakeQuantize" version="opset1">
			<data auto_broadcast="numpy" levels="256"/>
			<input>
				<port id="0">
					<dim>1</dim>
					<dim>192</dim>
					<dim>30</dim>
					<dim>54</dim>
				</port>
				<port id="1"/>
				<port id="2"/>
				<port id="3"/>
				<port id="4"/>
			</input>
			<output>
				<port id="5" precision="FP16">
					<dim>1</dim>
					<dim>192</dim>
					<dim>30</dim>
					<dim>54</dim>
				</port>
			</output>
		</layer>
		<layer id="361" name="431/mean/Fused_Mul_5158751589_const313320470/quantized24981_const" type="Const" version="opset1">
			<data element_type="i8" offset="78264" shape="64,192,1,1" size="12288"/>
			<output>
				<port id="0" precision="I8">
					<dim>64</dim>
					<dim>192</dim>
					<dim>1</dim>
					<dim>1</dim>
				</port>
			</output>
		</layer>
		<layer id="362" name="431/mean/Fused_Mul_5158751589_const313320470/quantized/to_f16" type="Convert" version="opset1">
			<data destination_type="f16"/>
			<input>
				<port id="0">
					<dim>64</dim>
					<dim>192</dim>
					<dim>1</dim>
					<dim>1</dim>
				</port>
			</input>
			<output>
				<port id="1" precision="FP16">
					<dim>64</dim>
					<dim>192</dim>
					<dim>1</dim>
					<dim>1</dim>
				</port>
			</output>
		</layer>
		<layer id="363" name="430/fq_weights_1/zero_point24994_const" type="Const" version="opset1">
			<data element_type="f16" offset="90552" shape="64,1,1,1" size="128"/>
			<output>
				<port id="0" precision="FP16">
					<dim>64</dim>
					<dim>1</dim>
					<dim>1</dim>
					<dim>1</dim>
				</port>
			</output>
		</layer>
		<layer id="364" name="430/fq_weights_1/minus_zp" type="Subtract" version="opset1">
			<data auto_broadcast="numpy"/>
			<input>
				<port id="0">
					<dim>64</dim>
					<dim>192</dim>
					<dim>1</dim>
					<dim>1</dim>
				</port>
				<port id="1">
					<dim>64</dim>
					<dim>1</dim>
					<dim>1</dim>
					<dim>1</dim>
				</port>
			</input>
			<output>
				<port id="2" precision="FP16">
					<dim>64</dim>
					<dim>192</dim>
					<dim>1</dim>
					<dim>1</dim>
				</port>
			</output>
		</layer>
		<layer id="365" name="430/fq_weights_1/scale24989_const" type="Const" version="opset1">
			<data element_type="f16" offset="90680" shape="64,1,1,1" size="128"/>
			<output>
				<port id="0" precision="FP16">
					<dim>64</dim>
					<dim>1</dim>
					<dim>1</dim>
					<dim>1</dim>
				</port>
			</output>
		</layer>
		<layer id="366" name="430/fq_weights_1/mulpiply_by_scale" type="Multiply" version="opset1">
			<data auto_broadcast="numpy"/>
			<input>
				<port id="0">
					<dim>64</dim>
					<dim>192</dim>
					<dim>1</dim>
					<dim>1</dim>
				</port>
				<port id="1">
					<dim>64</dim>
					<dim>1</dim>
					<dim>1</dim>
					<dim>1</dim>
				</port>
			</input>
			<output>
				<port id="2" precision="FP16">
					<dim>64</dim>
					<dim>192</dim>
					<dim>1</dim>
					<dim>1</dim>
				</port>
			</output>
		</layer>
		<layer id="367" name="430" type="Convolution" version="opset1">
			<data auto_pad="explicit" dilations="1,1" pads_begin="0,0" pads_end="0,0" strides="1,1"/>
			<input>
				<port id="0">
					<dim>1</dim>
					<dim>192</dim>
					<dim>30</dim>
					<dim>54</dim>
				</port>
				<port id="1">
					<dim>64</dim>
					<dim>192</dim>
					<dim>1</dim>
					<dim>1</dim>
				</port>
			</input>
			<output>
				<port id="2" precision="FP16">
					<dim>1</dim>
					<dim>64</dim>
					<dim>30</dim>
					<dim>54</dim>
				</port>
			</output>
		</layer>
		<layer id="368" name="data_add_472844728948949/EltwiseUnsqueeze49761_const3135_const" type="Const" version="opset1">
			<data element_type="f16" offset="90808" shape="1,64,1,1" size="128"/>
			<output>
				<port id="0" precision="FP16">
					<dim>1</dim>
					<dim>64</dim>
					<dim>1</dim>
					<dim>1</dim>
				</port>
			</output>
		</layer>
		<layer id="369" name="431/variance/Fused_Add_" type="Add" version="opset1">
			<data auto_broadcast="numpy"/>
			<input>
				<port id="0">
					<dim>1</dim>
					<dim>64</dim>
					<dim>30</dim>
					<dim>54</dim>
				</port>
				<port id="1">
					<dim>1</dim>
					<dim>64</dim>
					<dim>1</dim>
					<dim>1</dim>
				</port>
			</input>
			<output>
				<port id="2" names="431" precision="FP16">
					<dim>1</dim>
					<dim>64</dim>
					<dim>30</dim>
					<dim>54</dim>
				</port>
			</output>
		</layer>
		<layer id="370" name="1223512239_const" type="Const" version="opset1">
			<data element_type="f16" offset="90936" shape="" size="2"/>
			<output>
				<port id="0" precision="FP16"/>
			</output>
		</layer>
		<layer id="371" name="1223612240_const" type="Const" version="opset1">
			<data element_type="f16" offset="90938" shape="" size="2"/>
			<output>
				<port id="0" precision="FP16"/>
			</output>
		</layer>
		<layer id="372" name="1223712241_const" type="Const" version="opset1">
			<data element_type="f16" offset="90936" shape="" size="2"/>
			<output>
				<port id="0" precision="FP16"/>
			</output>
		</layer>
		<layer id="373" name="1223812242_const" type="Const" version="opset1">
			<data element_type="f16" offset="90938" shape="" size="2"/>
			<output>
				<port id="0" precision="FP16"/>
			</output>
		</layer>
		<layer id="374" name="432/fq_input_0" type="FakeQuantize" version="opset1">
			<data auto_broadcast="numpy" levels="256"/>
			<input>
				<port id="0">
					<dim>1</dim>
					<dim>64</dim>
					<dim>30</dim>
					<dim>54</dim>
				</port>
				<port id="1"/>
				<port id="2"/>
				<port id="3"/>
				<port id="4"/>
			</input>
			<output>
				<port id="5" precision="FP16">
					<dim>1</dim>
					<dim>64</dim>
					<dim>30</dim>
					<dim>54</dim>
				</port>
			</output>
		</layer>
		<layer id="375" name="433/mean/Fused_Mul_5159151593_const313720472/quantized22917_const" type="Const" version="opset1">
			<data element_type="i8" offset="90940" shape="384,64,1,1" size="24576"/>
			<output>
				<port id="0" precision="I8">
					<dim>384</dim>
					<dim>64</dim>
					<dim>1</dim>
					<dim>1</dim>
				</port>
			</output>
		</layer>
		<layer id="376" name="433/mean/Fused_Mul_5159151593_const313720472/quantized/to_f16" type="Convert" version="opset1">
			<data destination_type="f16"/>
			<input>
				<port id="0">
					<dim>384</dim>
					<dim>64</dim>
					<dim>1</dim>
					<dim>1</dim>
				</port>
			</input>
			<output>
				<port id="1" precision="FP16">
					<dim>384</dim>
					<dim>64</dim>
					<dim>1</dim>
					<dim>1</dim>
				</port>
			</output>
		</layer>
		<layer id="377" name="432/fq_weights_1/zero_point22930_const" type="Const" version="opset1">
			<data element_type="f16" offset="115516" shape="384,1,1,1" size="768"/>
			<output>
				<port id="0" precision="FP16">
					<dim>384</dim>
					<dim>1</dim>
					<dim>1</dim>
					<dim>1</dim>
				</port>
			</output>
		</layer>
		<layer id="378" name="432/fq_weights_1/minus_zp" type="Subtract" version="opset1">
			<data auto_broadcast="numpy"/>
			<input>
				<port id="0">
					<dim>384</dim>
					<dim>64</dim>
					<dim>1</dim>
					<dim>1</dim>
				</port>
				<port id="1">
					<dim>384</dim>
					<dim>1</dim>
					<dim>1</dim>
					<dim>1</dim>
				</port>
			</input>
			<output>
				<port id="2" precision="FP16">
					<dim>384</dim>
					<dim>64</dim>
					<dim>1</dim>
					<dim>1</dim>
				</port>
			</output>
		</layer>
		<layer id="379" name="432/fq_weights_1/scale22925_const" type="Const" version="opset1">
			<data element_type="f16" offset="116284" shape="384,1,1,1" size="768"/>
			<output>
				<port id="0" precision="FP16">
					<dim>384</dim>
					<dim>1</dim>
					<dim>1</dim>
					<dim>1</dim>
				</port>
			</output>
		</layer>
		<layer id="380" name="432/fq_weights_1/mulpiply_by_scale" type="Multiply" version="opset1">
			<data auto_broadcast="numpy"/>
			<input>
				<port id="0">
					<dim>384</dim>
					<dim>64</dim>
					<dim>1</dim>
					<dim>1</dim>
				</port>
				<port id="1">
					<dim>384</dim>
					<dim>1</dim>
					<dim>1</dim>
					<dim>1</dim>
				</port>
			</input>
			<output>
				<port id="2" precision="FP16">
					<dim>384</dim>
					<dim>64</dim>
					<dim>1</dim>
					<dim>1</dim>
				</port>
			</output>
		</layer>
		<layer id="381" name="432" type="Convolution" version="opset1">
			<data auto_pad="explicit" dilations="1,1" pads_begin="0,0" pads_end="0,0" strides="1,1"/>
			<input>
				<port id="0">
					<dim>1</dim>
					<dim>64</dim>
					<dim>30</dim>
					<dim>54</dim>
				</port>
				<port id="1">
					<dim>384</dim>
					<dim>64</dim>
					<dim>1</dim>
					<dim>1</dim>
				</port>
			</input>
			<output>
				<port id="2" precision="FP16">
					<dim>1</dim>
					<dim>384</dim>
					<dim>30</dim>
					<dim>54</dim>
				</port>
			</output>
		</layer>
		<layer id="382" name="data_add_472924729748951/EltwiseUnsqueeze49769_const3139_const" type="Const" version="opset1">
			<data element_type="f16" offset="117052" shape="1,384,1,1" size="768"/>
			<output>
				<port id="0" precision="FP16">
					<dim>1</dim>
					<dim>384</dim>
					<dim>1</dim>
					<dim>1</dim>
				</port>
			</output>
		</layer>
		<layer id="383" name="433/variance/Fused_Add_" type="Add" version="opset1">
			<data auto_broadcast="numpy"/>
			<input>
				<port id="0">
					<dim>1</dim>
					<dim>384</dim>
					<dim>30</dim>
					<dim>54</dim>
				</port>
				<port id="1">
					<dim>1</dim>
					<dim>384</dim>
					<dim>1</dim>
					<dim>1</dim>
				</port>
			</input>
			<output>
				<port id="2" names="433" precision="FP16">
					<dim>1</dim>
					<dim>384</dim>
					<dim>30</dim>
					<dim>54</dim>
				</port>
			</output>
		</layer>
		<layer id="384" name="434" type="Clamp" version="opset1">
			<data max="6.0" min="0.0"/>
			<input>
				<port id="0">
					<dim>1</dim>
					<dim>384</dim>
					<dim>30</dim>
					<dim>54</dim>
				</port>
			</input>
			<output>
				<port id="1" names="434" precision="FP16">
					<dim>1</dim>
					<dim>384</dim>
					<dim>30</dim>
					<dim>54</dim>
				</port>
			</output>
		</layer>
		<layer id="385" name="1013510139_const" type="Const" version="opset1">
			<data element_type="f16" offset="117820" shape="1,384,1,1" size="768"/>
			<output>
				<port id="0" precision="FP16">
					<dim>1</dim>
					<dim>384</dim>
					<dim>1</dim>
					<dim>1</dim>
				</port>
			</output>
		</layer>
		<layer id="386" name="1013610140_const" type="Const" version="opset1">
			<data element_type="f16" offset="118588" shape="1,384,1,1" size="768"/>
			<output>
				<port id="0" precision="FP16">
					<dim>1</dim>
					<dim>384</dim>
					<dim>1</dim>
					<dim>1</dim>
				</port>
			</output>
		</layer>
		<layer id="387" name="1013710141_const" type="Const" version="opset1">
			<data element_type="f16" offset="117820" shape="1,384,1,1" size="768"/>
			<output>
				<port id="0" precision="FP16">
					<dim>1</dim>
					<dim>384</dim>
					<dim>1</dim>
					<dim>1</dim>
				</port>
			</output>
		</layer>
		<layer id="388" name="1013810142_const" type="Const" version="opset1">
			<data element_type="f16" offset="118588" shape="1,384,1,1" size="768"/>
			<output>
				<port id="0" precision="FP16">
					<dim>1</dim>
					<dim>384</dim>
					<dim>1</dim>
					<dim>1</dim>
				</port>
			</output>
		</layer>
		<layer id="389" name="435/fq_input_0" type="FakeQuantize" version="opset1">
			<data auto_broadcast="numpy" levels="256"/>
			<input>
				<port id="0">
					<dim>1</dim>
					<dim>384</dim>
					<dim>30</dim>
					<dim>54</dim>
				</port>
				<port id="1">
					<dim>1</dim>
					<dim>384</dim>
					<dim>1</dim>
					<dim>1</dim>
				</port>
				<port id="2">
					<dim>1</dim>
					<dim>384</dim>
					<dim>1</dim>
					<dim>1</dim>
				</port>
				<port id="3">
					<dim>1</dim>
					<dim>384</dim>
					<dim>1</dim>
					<dim>1</dim>
				</port>
				<port id="4">
					<dim>1</dim>
					<dim>384</dim>
					<dim>1</dim>
					<dim>1</dim>
				</port>
			</input>
			<output>
				<port id="5" precision="FP16">
					<dim>1</dim>
					<dim>384</dim>
					<dim>30</dim>
					<dim>54</dim>
				</port>
			</output>
		</layer>
		<layer id="390" name="101610101613_const314220474/quantized23757_const" type="Const" version="opset1">
			<data element_type="i8" offset="119356" shape="384,1,3,3" size="3456"/>
			<output>
				<port id="0" precision="I8">
					<dim>384</dim>
					<dim>1</dim>
					<dim>3</dim>
					<dim>3</dim>
				</port>
			</output>
		</layer>
		<layer id="391" name="101610101613_const314220474/quantized/to_f16" type="Convert" version="opset1">
			<data destination_type="f16"/>
			<input>
				<port id="0">
					<dim>384</dim>
					<dim>1</dim>
					<dim>3</dim>
					<dim>3</dim>
				</port>
			</input>
			<output>
				<port id="1" precision="FP16">
					<dim>384</dim>
					<dim>1</dim>
					<dim>3</dim>
					<dim>3</dim>
				</port>
			</output>
		</layer>
		<layer id="392" name="435/fq_weights_1/zero_point23770_const" type="Const" version="opset1">
			<data element_type="f16" offset="122812" shape="384,1,1,1" size="768"/>
			<output>
				<port id="0" precision="FP16">
					<dim>384</dim>
					<dim>1</dim>
					<dim>1</dim>
					<dim>1</dim>
				</port>
			</output>
		</layer>
		<layer id="393" name="435/fq_weights_1/minus_zp" type="Subtract" version="opset1">
			<data auto_broadcast="numpy"/>
			<input>
				<port id="0">
					<dim>384</dim>
					<dim>1</dim>
					<dim>3</dim>
					<dim>3</dim>
				</port>
				<port id="1">
					<dim>384</dim>
					<dim>1</dim>
					<dim>1</dim>
					<dim>1</dim>
				</port>
			</input>
			<output>
				<port id="2" precision="FP16">
					<dim>384</dim>
…
		<edge from-layer="3933" from-port="0" to-layer="3934" to-port="1"/>
		<edge from-layer="3833" from-port="2" to-layer="3935" to-port="0"/>
		<edge from-layer="3934" from-port="2" to-layer="3935" to-port="1"/>
		<edge from-layer="3935" from-port="2" to-layer="3937" to-port="0"/>
		<edge from-layer="3936" from-port="0" to-layer="3937" to-port="1"/>
		<edge from-layer="3935" from-port="2" to-layer="3939" to-port="0"/>
		<edge from-layer="3938" from-port="0" to-layer="3940" to-port="0"/>
		<edge from-layer="3939" from-port="1" to-layer="3940" to-port="1"/>
		<edge from-layer="3940" from-port="2" to-layer="3942" to-port="0"/>
		<edge from-layer="3941" from-port="0" to-layer="3942" to-port="1"/>
		<edge from-layer="3937" from-port="2" to-layer="3943" to-port="0"/>
		<edge from-layer="3942" from-port="2" to-layer="3943" to-port="1"/>
		<edge from-layer="3943" from-port="2" to-layer="3945" to-port="0"/>
		<edge from-layer="3944" from-port="0" to-layer="3945" to-port="1"/>
		<edge from-layer="3945" from-port="2" to-layer="3947" to-port="0"/>
		<edge from-layer="3946" from-port="0" to-layer="3947" to-port="1"/>
		<edge from-layer="2881" from-port="4" to-layer="3950" to-port="0"/>
		<edge from-layer="3948" from-port="0" to-layer="3950" to-port="1"/>
		<edge from-layer="3949" from-port="0" to-layer="3950" to-port="2"/>
		<edge from-layer="3950" from-port="3" to-layer="3951" to-port="0"/>
		<edge from-layer="3951" from-port="1" to-layer="3953" to-port="0"/>
		<edge from-layer="3952" from-port="0" to-layer="3953" to-port="1"/>
		<edge from-layer="3945" from-port="2" to-layer="3954" to-port="0"/>
		<edge from-layer="3953" from-port="2" to-layer="3955" to-port="0"/>
		<edge from-layer="3954" from-port="1" to-layer="3955" to-port="1"/>
		<edge from-layer="3955" from-port="2" to-layer="3957" to-port="0"/>
		<edge from-layer="3956" from-port="0" to-layer="3957" to-port="1"/>
		<edge from-layer="3947" from-port="2" to-layer="3958" to-port="0"/>
		<edge from-layer="3957" from-port="2" to-layer="3958" to-port="1"/>
		<edge from-layer="3958" from-port="2" to-layer="3960" to-port="0"/>
		<edge from-layer="3959" from-port="0" to-layer="3960" to-port="1"/>
		<edge from-layer="3960" from-port="2" to-layer="3962" to-port="0"/>
		<edge from-layer="3961" from-port="0" to-layer="3962" to-port="1"/>
		<edge from-layer="3902" from-port="2" to-layer="3964" to-port="0"/>
		<edge from-layer="3963" from-port="0" to-layer="3964" to-port="1"/>
		<edge from-layer="3900" from-port="2" to-layer="3965" to-port="0"/>
		<edge from-layer="3964" from-port="2" to-layer="3965" to-port="1"/>
		<edge from-layer="3965" from-port="2" to-layer="3967" to-port="0"/>
		<edge from-layer="3966" from-port="0" to-layer="3967" to-port="1"/>
		<edge from-layer="3965" from-port="2" to-layer="3969" to-port="0"/>
		<edge from-layer="3968" from-port="0" to-layer="3970" to-port="0"/>
		<edge from-layer="3969" from-port="1" to-layer="3970" to-port="1"/>
		<edge from-layer="3970" from-port="2" to-layer="3972" to-port="0"/>
		<edge from-layer="3971" from-port="0" to-layer="3972" to-port="1"/>
		<edge from-layer="3967" from-port="2" to-layer="3973" to-port="0"/>
		<edge from-layer="3972" from-port="2" to-layer="3973" to-port="1"/>
		<edge from-layer="3973" from-port="2" to-layer="3975" to-port="0"/>
		<edge from-layer="3974" from-port="0" to-layer="3975" to-port="1"/>
		<edge from-layer="3975" from-port="2" to-layer="3977" to-port="0"/>
		<edge from-layer="3976" from-port="0" to-layer="3977" to-port="1"/>
		<edge from-layer="2881" from-port="4" to-layer="3980" to-port="0"/>
		<edge from-layer="3978" from-port="0" to-layer="3980" to-port="1"/>
		<edge from-layer="3979" from-port="0" to-layer="3980" to-port="2"/>
		<edge from-layer="3980" from-port="3" to-layer="3981" to-port="0"/>
		<edge from-layer="3981" from-port="1" to-layer="3983" to-port="0"/>
		<edge from-layer="3982" from-port="0" to-layer="3983" to-port="1"/>
		<edge from-layer="3975" from-port="2" to-layer="3984" to-port="0"/>
		<edge from-layer="3983" from-port="2" to-layer="3985" to-port="0"/>
		<edge from-layer="3984" from-port="1" to-layer="3985" to-port="1"/>
		<edge from-layer="3985" from-port="2" to-layer="3987" to-port="0"/>
		<edge from-layer="3986" from-port="0" to-layer="3987" to-port="1"/>
		<edge from-layer="3977" from-port="2" to-layer="3988" to-port="0"/>
		<edge from-layer="3987" from-port="2" to-layer="3988" to-port="1"/>
		<edge from-layer="3988" from-port="2" to-layer="3990" to-port="0"/>
		<edge from-layer="3989" from-port="0" to-layer="3990" to-port="1"/>
		<edge from-layer="3990" from-port="2" to-layer="3992" to-port="0"/>
		<edge from-layer="3991" from-port="0" to-layer="3992" to-port="1"/>
		<edge from-layer="3865" from-port="2" to-layer="3993" to-port="0"/>
		<edge from-layer="3932" from-port="2" to-layer="3993" to-port="1"/>
		<edge from-layer="3962" from-port="2" to-layer="3993" to-port="2"/>
		<edge from-layer="3992" from-port="2" to-layer="3993" to-port="3"/>
		<edge from-layer="3783" from-port="3" to-layer="3994" to-port="0"/>
		<edge from-layer="3993" from-port="4" to-layer="3995" to-port="0"/>
		<edge from-layer="3994" from-port="1" to-layer="3995" to-port="1"/>
		<edge from-layer="2513" from-port="2" to-layer="3998" to-port="0"/>
		<edge from-layer="3998" from-port="1" to-layer="4001" to-port="0"/>
		<edge from-layer="3999" from-port="0" to-layer="4001" to-port="1"/>
		<edge from-layer="4000" from-port="0" to-layer="4001" to-port="2"/>
		<edge from-layer="4001" from-port="3" to-layer="4003" to-port="0"/>
		<edge from-layer="4002" from-port="0" to-layer="4003" to-port="1"/>
		<edge from-layer="4003" from-port="2" to-layer="4005" to-port="0"/>
		<edge from-layer="4004" from-port="0" to-layer="4005" to-port="1"/>
		<edge from-layer="4005" from-port="2" to-layer="4007" to-port="0"/>
		<edge from-layer="4006" from-port="0" to-layer="4007" to-port="1"/>
		<edge from-layer="3997" from-port="0" to-layer="4008" to-port="0"/>
		<edge from-layer="4007" from-port="2" to-layer="4008" to-port="1"/>
		<edge from-layer="4008" from-port="2" to-layer="4009" to-port="0"/>
		<edge from-layer="4009" from-port="1" to-layer="4011" to-port="0"/>
		<edge from-layer="4010" from-port="0" to-layer="4011" to-port="1"/>
		<edge from-layer="4011" from-port="2" to-layer="4013" to-port="0"/>
		<edge from-layer="4012" from-port="0" to-layer="4013" to-port="1"/>
		<edge from-layer="4013" from-port="2" to-layer="4015" to-port="0"/>
		<edge from-layer="4014" from-port="0" to-layer="4015" to-port="1"/>
		<edge from-layer="4015" from-port="2" to-layer="4017" to-port="0"/>
		<edge from-layer="4016" from-port="0" to-layer="4017" to-port="1"/>
		<edge from-layer="4017" from-port="2" to-layer="4019" to-port="0"/>
		<edge from-layer="4018" from-port="0" to-layer="4019" to-port="1"/>
		<edge from-layer="4019" from-port="2" to-layer="4021" to-port="0"/>
		<edge from-layer="4020" from-port="0" to-layer="4021" to-port="1"/>
		<edge from-layer="4021" from-port="2" to-layer="4023" to-port="0"/>
		<edge from-layer="4022" from-port="0" to-layer="4024" to-port="0"/>
		<edge from-layer="4023" from-port="1" to-layer="4024" to-port="1"/>
		<edge from-layer="4021" from-port="2" to-layer="4025" to-port="0"/>
		<edge from-layer="4024" from-port="2" to-layer="4025" to-port="1"/>
		<edge from-layer="2513" from-port="2" to-layer="4027" to-port="0"/>
		<edge from-layer="4027" from-port="1" to-layer="4030" to-port="0"/>
		<edge from-layer="4028" from-port="0" to-layer="4030" to-port="1"/>
		<edge from-layer="4029" from-port="0" to-layer="4030" to-port="2"/>
		<edge from-layer="4030" from-port="3" to-layer="4032" to-port="0"/>
		<edge from-layer="4031" from-port="0" to-layer="4032" to-port="1"/>
		<edge from-layer="4032" from-port="2" to-layer="4034" to-port="0"/>
		<edge from-layer="4033" from-port="0" to-layer="4034" to-port="1"/>
		<edge from-layer="4034" from-port="2" to-layer="4036" to-port="0"/>
		<edge from-layer="4035" from-port="0" to-layer="4036" to-port="1"/>
		<edge from-layer="4026" from-port="0" to-layer="4037" to-port="0"/>
		<edge from-layer="4036" from-port="2" to-layer="4037" to-port="1"/>
		<edge from-layer="4037" from-port="2" to-layer="4038" to-port="0"/>
		<edge from-layer="4038" from-port="1" to-layer="4040" to-port="0"/>
		<edge from-layer="4039" from-port="0" to-layer="4040" to-port="1"/>
		<edge from-layer="4040" from-port="2" to-layer="4042" to-port="0"/>
		<edge from-layer="4041" from-port="0" to-layer="4042" to-port="1"/>
		<edge from-layer="4042" from-port="2" to-layer="4044" to-port="0"/>
		<edge from-layer="4043" from-port="0" to-layer="4044" to-port="1"/>
		<edge from-layer="4044" from-port="2" to-layer="4046" to-port="0"/>
		<edge from-layer="4045" from-port="0" to-layer="4046" to-port="1"/>
		<edge from-layer="4046" from-port="2" to-layer="4048" to-port="0"/>
		<edge from-layer="4047" from-port="0" to-layer="4048" to-port="1"/>
		<edge from-layer="4048" from-port="2" to-layer="4050" to-port="0"/>
		<edge from-layer="4049" from-port="0" to-layer="4050" to-port="1"/>
		<edge from-layer="4050" from-port="2" to-layer="4051" to-port="0"/>
		<edge from-layer="4051" from-port="1" to-layer="4052" to-port="0"/>
		<edge from-layer="4023" from-port="1" to-layer="4052" to-port="1"/>
		<edge from-layer="4025" from-port="2" to-layer="4053" to-port="0"/>
		<edge from-layer="4052" from-port="2" to-layer="4053" to-port="1"/>
		<edge from-layer="4053" from-port="2" to-layer="4055" to-port="0"/>
		<edge from-layer="4054" from-port="0" to-layer="4055" to-port="1"/>
		<edge from-layer="4051" from-port="1" to-layer="4057" to-port="0"/>
		<edge from-layer="4056" from-port="0" to-layer="4057" to-port="1"/>
		<edge from-layer="4050" from-port="2" to-layer="4058" to-port="0"/>
		<edge from-layer="4057" from-port="2" to-layer="4058" to-port="1"/>
		<edge from-layer="4058" from-port="2" to-layer="4059" to-port="0"/>
		<edge from-layer="4052" from-port="2" to-layer="4059" to-port="1"/>
		<edge from-layer="4059" from-port="2" to-layer="4061" to-port="0"/>
		<edge from-layer="4060" from-port="0" to-layer="4061" to-port="1"/>
		<edge from-layer="4053" from-port="2" to-layer="4063" to-port="0"/>
		<edge from-layer="4062" from-port="0" to-layer="4063" to-port="1"/>
		<edge from-layer="4059" from-port="2" to-layer="4065" to-port="0"/>
		<edge from-layer="4064" from-port="0" to-layer="4065" to-port="1"/>
		<edge from-layer="4055" from-port="2" to-layer="4066" to-port="0"/>
		<edge from-layer="4061" from-port="2" to-layer="4066" to-port="1"/>
		<edge from-layer="4063" from-port="2" to-layer="4066" to-port="2"/>
		<edge from-layer="4065" from-port="2" to-layer="4066" to-port="3"/>
		<edge from-layer="4066" from-port="4" to-layer="4068" to-port="0"/>
		<edge from-layer="4067" from-port="0" to-layer="4068" to-port="1"/>
		<edge from-layer="4068" from-port="2" to-layer="4069" to-port="0"/>
		<edge from-layer="3996" from-port="0" to-layer="4070" to-port="0"/>
		<edge from-layer="4069" from-port="1" to-layer="4070" to-port="1"/>
		<edge from-layer="4070" from-port="2" to-layer="4072" to-port="0"/>
		<edge from-layer="4071" from-port="0" to-layer="4072" to-port="1"/>
		<edge from-layer="2697" from-port="3" to-layer="4073" to-port="0"/>
		<edge from-layer="4073" from-port="1" to-layer="4074" to-port="0"/>
		<edge from-layer="4072" from-port="2" to-layer="4076" to-port="0"/>
		<edge from-layer="4074" from-port="1" to-layer="4076" to-port="1"/>
		<edge from-layer="4075" from-port="0" to-layer="4076" to-port="2"/>
		<edge from-layer="4076" from-port="3" to-layer="4079" to-port="0"/>
		<edge from-layer="4077" from-port="0" to-layer="4079" to-port="1"/>
		<edge from-layer="4078" from-port="0" to-layer="4079" to-port="2"/>
		<edge from-layer="4076" from-port="3" to-layer="4082" to-port="0"/>
		<edge from-layer="4080" from-port="0" to-layer="4082" to-port="1"/>
		<edge from-layer="4081" from-port="0" to-layer="4082" to-port="2"/>
		<edge from-layer="4079" from-port="3" to-layer="4083" to-port="0"/>
		<edge from-layer="4082" from-port="3" to-layer="4083" to-port="1"/>
		<edge from-layer="4083" from-port="2" to-layer="4085" to-port="0"/>
		<edge from-layer="4084" from-port="0" to-layer="4085" to-port="1"/>
		<edge from-layer="4085" from-port="2" to-layer="4087" to-port="0"/>
		<edge from-layer="4086" from-port="0" to-layer="4087" to-port="1"/>
		<edge from-layer="4088" from-port="0" to-layer="4089" to-port="0"/>
		<edge from-layer="4089" from-port="1" to-layer="4091" to-port="0"/>
		<edge from-layer="4090" from-port="0" to-layer="4091" to-port="1"/>
		<edge from-layer="4091" from-port="2" to-layer="4093" to-port="0"/>
		<edge from-layer="4092" from-port="0" to-layer="4093" to-port="1"/>
		<edge from-layer="2649" from-port="5" to-layer="4094" to-port="0"/>
		<edge from-layer="4093" from-port="2" to-layer="4094" to-port="1"/>
		<edge from-layer="4094" from-port="2" to-layer="4096" to-port="0"/>
		<edge from-layer="4095" from-port="0" to-layer="4096" to-port="1"/>
		<edge from-layer="4096" from-port="2" to-layer="4099" to-port="0"/>
		<edge from-layer="4097" from-port="0" to-layer="4099" to-port="1"/>
		<edge from-layer="4098" from-port="0" to-layer="4099" to-port="2"/>
		<edge from-layer="4099" from-port="3" to-layer="4101" to-port="0"/>
		<edge from-layer="4100" from-port="0" to-layer="4101" to-port="1"/>
		<edge from-layer="4101" from-port="2" to-layer="4103" to-port="0"/>
		<edge from-layer="4102" from-port="0" to-layer="4103" to-port="1"/>
		<edge from-layer="4073" from-port="1" to-layer="4104" to-port="0"/>
		<edge from-layer="4103" from-port="2" to-layer="4106" to-port="0"/>
		<edge from-layer="4104" from-port="1" to-layer="4106" to-port="1"/>
		<edge from-layer="4105" from-port="0" to-layer="4106" to-port="2"/>
		<edge from-layer="4106" from-port="3" to-layer="4109" to-port="0"/>
		<edge from-layer="4109" from-port="1" to-layer="4112" to-port="0"/>
		<edge from-layer="4110" from-port="0" to-layer="4112" to-port="1"/>
		<edge from-layer="4111" from-port="0" to-layer="4112" to-port="2"/>
		<edge from-layer="4112" from-port="3" to-layer="4114" to-port="0"/>
		<edge from-layer="4113" from-port="0" to-layer="4114" to-port="1"/>
		<edge from-layer="4114" from-port="2" to-layer="4116" to-port="0"/>
		<edge from-layer="4115" from-port="0" to-layer="4116" to-port="1"/>
		<edge from-layer="4108" from-port="0" to-layer="4117" to-port="0"/>
		<edge from-layer="4116" from-port="2" to-layer="4117" to-port="1"/>
		<edge from-layer="4107" from-port="0" to-layer="4118" to-port="0"/>
		<edge from-layer="4117" from-port="2" to-layer="4118" to-port="1"/>
		<edge from-layer="4106" from-port="3" to-layer="4119" to-port="0"/>
		<edge from-layer="4118" from-port="2" to-layer="4119" to-port="1"/>
		<edge from-layer="4106" from-port="3" to-layer="4122" to-port="0"/>
		<edge from-layer="4122" from-port="1" to-layer="4125" to-port="0"/>
		<edge from-layer="4123" from-port="0" to-layer="4125" to-port="1"/>
		<edge from-layer="4124" from-port="0" to-layer="4125" to-port="2"/>
		<edge from-layer="4125" from-port="3" to-layer="4127" to-port="0"/>
		<edge from-layer="4126" from-port="0" to-layer="4127" to-port="1"/>
		<edge from-layer="4127" from-port="2" to-layer="4129" to-port="0"/>
		<edge from-layer="4128" from-port="0" to-layer="4129" to-port="1"/>
		<edge from-layer="4121" from-port="0" to-layer="4130" to-port="0"/>
		<edge from-layer="4129" from-port="2" to-layer="4130" to-port="1"/>
		<edge from-layer="4120" from-port="0" to-layer="4131" to-port="0"/>
		<edge from-layer="4130" from-port="2" to-layer="4131" to-port="1"/>
		<edge from-layer="4119" from-port="2" to-layer="4132" to-port="0"/>
		<edge from-layer="4131" from-port="2" to-layer="4132" to-port="1"/>
		<edge from-layer="4132" from-port="2" to-layer="4136" to-port="0"/>
		<edge from-layer="4133" from-port="0" to-layer="4136" to-port="1"/>
		<edge from-layer="4134" from-port="0" to-layer="4136" to-port="2"/>
		<edge from-layer="4135" from-port="0" to-layer="4136" to-port="3"/>
		<edge from-layer="4136" from-port="4" to-layer="4137" to-port="0"/>
		<edge from-layer="4087" from-port="2" to-layer="4138" to-port="0"/>
		<edge from-layer="4137" from-port="1" to-layer="4138" to-port="1"/>
		<edge from-layer="4076" from-port="3" to-layer="4141" to-port="0"/>
		<edge from-layer="4139" from-port="0" to-layer="4141" to-port="1"/>
		<edge from-layer="4140" from-port="0" to-layer="4141" to-port="2"/>
		<edge from-layer="4076" from-port="3" to-layer="4144" to-port="0"/>
		<edge from-layer="4142" from-port="0" to-layer="4144" to-port="1"/>
		<edge from-layer="4143" from-port="0" to-layer="4144" to-port="2"/>
		<edge from-layer="4141" from-port="3" to-layer="4145" to-port="0"/>
		<edge from-layer="4144" from-port="3" to-layer="4145" to-port="1"/>
		<edge from-layer="4145" from-port="2" to-layer="4147" to-port="0"/>
		<edge from-layer="4146" from-port="0" to-layer="4147" to-port="1"/>
		<edge from-layer="4132" from-port="2" to-layer="4151" to-port="0"/>
		<edge from-layer="4148" from-port="0" to-layer="4151" to-port="1"/>
		<edge from-layer="4149" from-port="0" to-layer="4151" to-port="2"/>
		<edge from-layer="4150" from-port="0" to-layer="4151" to-port="3"/>
		<edge from-layer="4151" from-port="4" to-layer="4152" to-port="0"/>
		<edge from-layer="4152" from-port="1" to-layer="4153" to-port="0"/>
		<edge from-layer="4147" from-port="2" to-layer="4154" to-port="0"/>
		<edge from-layer="4153" from-port="1" to-layer="4154" to-port="1"/>
		<edge from-layer="4154" from-port="2" to-layer="4155" to-port="0"/>
		<edge from-layer="4136" from-port="4" to-layer="4155" to-port="1"/>
		<edge from-layer="4138" from-port="2" to-layer="4156" to-port="0"/>
		<edge from-layer="4155" from-port="2" to-layer="4156" to-port="1"/>
		<edge from-layer="4152" from-port="1" to-layer="4157" to-port="0"/>
		<edge from-layer="4154" from-port="2" to-layer="4158" to-port="0"/>
		<edge from-layer="4157" from-port="1" to-layer="4158" to-port="1"/>
		<edge from-layer="4158" from-port="2" to-layer="4160" to-port="0"/>
		<edge from-layer="4159" from-port="0" to-layer="4160" to-port="1"/>
		<edge from-layer="4156" from-port="2" to-layer="4161" to-port="0"/>
		<edge from-layer="4160" from-port="2" to-layer="4161" to-port="1"/>
		<edge from-layer="4161" from-port="2" to-layer="4163" to-port="0"/>
		<edge from-layer="4162" from-port="0" to-layer="4163" to-port="1"/>
		<edge from-layer="4161" from-port="2" to-layer="4165" to-port="0"/>
		<edge from-layer="4164" from-port="0" to-layer="4166" to-port="0"/>
		<edge from-layer="4165" from-port="1" to-layer="4166" to-port="1"/>
		<edge from-layer="4166" from-port="2" to-layer="4168" to-port="0"/>
		<edge from-layer="4167" from-port="0" to-layer="4168" to-port="1"/>
		<edge from-layer="4163" from-port="2" to-layer="4169" to-port="0"/>
		<edge from-layer="4168" from-port="2" to-layer="4169" to-port="1"/>
		<edge from-layer="4169" from-port="2" to-layer="4171" to-port="0"/>
		<edge from-layer="4170" from-port="0" to-layer="4171" to-port="1"/>
		<edge from-layer="4171" from-port="2" to-layer="4173" to-port="0"/>
		<edge from-layer="4172" from-port="0" to-layer="4173" to-port="1"/>
		<edge from-layer="2881" from-port="4" to-layer="4176" to-port="0"/>
		<edge from-layer="4174" from-port="0" to-layer="4176" to-port="1"/>
		<edge from-layer="4175" from-port="0" to-layer="4176" to-port="2"/>
		<edge from-layer="4176" from-port="3" to-layer="4177" to-port="0"/>
		<edge from-layer="4177" from-port="1" to-layer="4179" to-port="0"/>
		<edge from-layer="4178" from-port="0" to-layer="4179" to-port="1"/>
		<edge from-layer="4171" from-port="2" to-layer="4180" to-port="0"/>
		<edge from-layer="4179" from-port="2" to-layer="4181" to-port="0"/>
		<edge from-layer="4180" from-port="1" to-layer="4181" to-port="1"/>
		<edge from-layer="4181" from-port="2" to-layer="4183" to-port="0"/>
		<edge from-layer="4182" from-port="0" to-layer="4183" to-port="1"/>
		<edge from-layer="4173" from-port="2" to-layer="4184" to-port="0"/>
		<edge from-layer="4183" from-port="2" to-layer="4184" to-port="1"/>
		<edge from-layer="4184" from-port="2" to-layer="4186" to-port="0"/>
		<edge from-layer="4185" from-port="0" to-layer="4186" to-port="1"/>
		<edge from-layer="4186" from-port="2" to-layer="4188" to-port="0"/>
		<edge from-layer="4187" from-port="0" to-layer="4188" to-port="1"/>
		<edge from-layer="4076" from-port="3" to-layer="4191" to-port="0"/>
		<edge from-layer="4189" from-port="0" to-layer="4191" to-port="1"/>
		<edge from-layer="4190" from-port="0" to-layer="4191" to-port="2"/>
		<edge from-layer="4076" from-port="3" to-layer="4194" to-port="0"/>
		<edge from-layer="4192" from-port="0" to-layer="4194" to-port="1"/>
		<edge from-layer="4193" from-port="0" to-layer="4194" to-port="2"/>
		<edge from-layer="4191" from-port="3" to-layer="4195" to-port="0"/>
		<edge from-layer="4194" from-port="3" to-layer="4195" to-port="1"/>
		<edge from-layer="4195" from-port="2" to-layer="4197" to-port="0"/>
		<edge from-layer="4196" from-port="0" to-layer="4197" to-port="1"/>
		<edge from-layer="4197" from-port="2" to-layer="4199" to-port="0"/>
		<edge from-layer="4198" from-port="0" to-layer="4199" to-port="1"/>
		<edge from-layer="4132" from-port="2" to-layer="4203" to-port="0"/>
		<edge from-layer="4200" from-port="0" to-layer="4203" to-port="1"/>
		<edge from-layer="4201" from-port="0" to-layer="4203" to-port="2"/>
		<edge from-layer="4202" from-port="0" to-layer="4203" to-port="3"/>
		<edge from-layer="4203" from-port="4" to-layer="4204" to-port="0"/>
		<edge from-layer="4199" from-port="2" to-layer="4205" to-port="0"/>
		<edge from-layer="4204" from-port="1" to-layer="4205" to-port="1"/>
		<edge from-layer="4076" from-port="3" to-layer="4208" to-port="0"/>
		<edge from-layer="4206" from-port="0" to-layer="4208" to-port="1"/>
		<edge from-layer="4207" from-port="0" to-layer="4208" to-port="2"/>
		<edge from-layer="4076" from-port="3" to-layer="4211" to-port="0"/>
		<edge from-layer="4209" from-port="0" to-layer="4211" to-port="1"/>
		<edge from-layer="4210" from-port="0" to-layer="4211" to-port="2"/>
		<edge from-layer="4208" from-port="3" to-layer="4212" to-port="0"/>
		<edge from-layer="4211" from-port="3" to-layer="4212" to-port="1"/>
		<edge from-layer="4212" from-port="2" to-layer="4214" to-port="0"/>
		<edge from-layer="4213" from-port="0" to-layer="4214" to-port="1"/>
		<edge from-layer="4132" from-port="2" to-layer="4218" to-port="0"/>
		<edge from-layer="4215" from-port="0" to-layer="4218" to-port="1"/>
		<edge from-layer="4216" from-port="0" to-layer="4218" to-port="2"/>
		<edge from-layer="4217" from-port="0" to-layer="4218" to-port="3"/>
		<edge from-layer="4218" from-port="4" to-layer="4219" to-port="0"/>
		<edge from-layer="4219" from-port="1" to-layer="4220" to-port="0"/>
		<edge from-layer="4214" from-port="2" to-layer="4221" to-port="0"/>
		<edge from-layer="4220" from-port="1" to-layer="4221" to-port="1"/>
		<edge from-layer="4221" from-port="2" to-layer="4222" to-port="0"/>
		<edge from-layer="4203" from-port="4" to-layer="4222" to-port="1"/>
		<edge from-layer="4205" from-port="2" to-layer="4223" to-port="0"/>
		<edge from-layer="4222" from-port="2" to-layer="4223" to-port="1"/>
		<edge from-layer="4219" from-port="1" to-layer="4224" to-port="0"/>
		<edge from-layer="4221" from-port="2" to-layer="4225" to-port="0"/>
		<edge from-layer="4224" from-port="1" to-layer="4225" to-port="1"/>
		<edge from-layer="4225" from-port="2" to-layer="4227" to-port="0"/>
		<edge from-layer="4226" from-port="0" to-layer="4227" to-port="1"/>
		<edge from-layer="4223" from-port="2" to-layer="4228" to-port="0"/>
		<edge from-layer="4227" from-port="2" to-layer="4228" to-port="1"/>
		<edge from-layer="4228" from-port="2" to-layer="4230" to-port="0"/>
		<edge from-layer="4229" from-port="0" to-layer="4230" to-port="1"/>
		<edge from-layer="4228" from-port="2" to-layer="4232" to-port="0"/>
		<edge from-layer="4231" from-port="0" to-layer="4233" to-port="0"/>
		<edge from-layer="4232" from-port="1" to-layer="4233" to-port="1"/>
		<edge from-layer="4233" from-port="2" to-layer="4235" to-port="0"/>
		<edge from-layer="4234" from-port="0" to-layer="4235" to-port="1"/>
		<edge from-layer="4230" from-port="2" to-layer="4236" to-port="0"/>
		<edge from-layer="4235" from-port="2" to-layer="4236" to-port="1"/>
		<edge from-layer="4236" from-port="2" to-layer="4238" to-port="0"/>
		<edge from-layer="4237" from-port="0" to-layer="4238" to-port="1"/>
		<edge from-layer="4238" from-port="2" to-layer="4240" to-port="0"/>
		<edge from-layer="4239" from-port="0" to-layer="4240" to-port="1"/>
		<edge from-layer="2881" from-port="4" to-layer="4243" to-port="0"/>
		<edge from-layer="4241" from-port="0" to-layer="4243" to-port="1"/>
		<edge from-layer="4242" from-port="0" to-layer="4243" to-port="2"/>
		<edge from-layer="4243" from-port="3" to-layer="4244" to-port="0"/>
		<edge from-layer="4244" from-port="1" to-layer="4246" to-port="0"/>
		<edge from-layer="4245" from-port="0" to-layer="4246" to-port="1"/>
		<edge from-layer="4238" from-port="2" to-layer="4247" to-port="0"/>
		<edge from-layer="4246" from-port="2" to-layer="4248" to-port="0"/>
		<edge from-layer="4247" from-port="1" to-layer="4248" to-port="1"/>
		<edge from-layer="4248" from-port="2" to-layer="4250" to-port="0"/>
		<edge from-layer="4249" from-port="0" to-layer="4250" to-port="1"/>
		<edge from-layer="4240" from-port="2" to-layer="4251" to-port="0"/>
		<edge from-layer="4250" from-port="2" to-layer="4251" to-port="1"/>
		<edge from-layer="4251" from-port="2" to-layer="4253" to-port="0"/>
		<edge from-layer="4252" from-port="0" to-layer="4253" to-port="1"/>
		<edge from-layer="4253" from-port="2" to-layer="4255" to-port="0"/>
		<edge from-layer="4254" from-port="0" to-layer="4255" to-port="1"/>
		<edge from-layer="4158" from-port="2" to-layer="4257" to-port="0"/>
		<edge from-layer="4256" from-port="0" to-layer="4257" to-port="1"/>
		<edge from-layer="4156" from-port="2" to-layer="4258" to-port="0"/>
		<edge from-layer="4257" from-port="2" to-layer="4258" to-port="1"/>
		<edge from-layer="4258" from-port="2" to-layer="4260" to-port="0"/>
		<edge from-layer="4259" from-port="0" to-layer="4260" to-port="1"/>
		<edge from-layer="4258" from-port="2" to-layer="4262" to-port="0"/>
		<edge from-layer="4261" from-port="0" to-layer="4263" to-port="0"/>
		<edge from-layer="4262" from-port="1" to-layer="4263" to-port="1"/>
		<edge from-layer="4263" from-port="2" to-layer="4265" to-port="0"/>
		<edge from-layer="4264" from-port="0" to-layer="4265" to-port="1"/>
		<edge from-layer="4260" from-port="2" to-layer="4266" to-port="0"/>
		<edge from-layer="4265" from-port="2" to-layer="4266" to-port="1"/>
		<edge from-layer="4266" from-port="2" to-layer="4268" to-port="0"/>
		<edge from-layer="4267" from-port="0" to-layer="4268" to-port="1"/>
		<edge from-layer="4268" from-port="2" to-layer="4270" to-port="0"/>
		<edge from-layer="4269" from-port="0" to-layer="4270" to-port="1"/>
		<edge from-layer="2881" from-port="4" to-layer="4273" to-port="0"/>
		<edge from-layer="4271" from-port="0" to-layer="4273" to-port="1"/>
		<edge from-layer="4272" from-port="0" to-layer="4273" to-port="2"/>
		<edge from-layer="4273" from-port="3" to-layer="4274" to-port="0"/>
		<edge from-layer="4274" from-port="1" to-layer="4276" to-port="0"/>
		<edge from-layer="4275" from-port="0" to-layer="4276" to-port="1"/>
		<edge from-layer="4268" from-port="2" to-layer="4277" to-port="0"/>
		<edge from-layer="4276" from-port="2" to-layer="4278" to-port="0"/>
		<edge from-layer="4277" from-port="1" to-layer="4278" to-port="1"/>
		<edge from-layer="4278" from-port="2" to-layer="4280" to-port="0"/>
		<edge from-layer="4279" from-port="0" to-layer="4280" to-port="1"/>
		<edge from-layer="4270" from-port="2" to-layer="4281" to-port="0"/>
		<edge from-layer="4280" from-port="2" to-layer="4281" to-port="1"/>
		<edge from-layer="4281" from-port="2" to-layer="4283" to-port="0"/>
		<edge from-layer="4282" from-port="0" to-layer="4283" to-port="1"/>
		<edge from-layer="4283" from-port="2" to-layer="4285" to-port="0"/>
		<edge from-layer="4284" from-port="0" to-layer="4285" to-port="1"/>
		<edge from-layer="4225" from-port="2" to-layer="4287" to-port="0"/>
		<edge from-layer="4286" from-port="0" to-layer="4287" to-port="1"/>
		<edge from-layer="4223" from-port="2" to-layer="4288" to-port="0"/>
		<edge from-layer="4287" from-port="2" to-layer="4288" to-port="1"/>
		<edge from-layer="4288" from-port="2" to-layer="4290" to-port="0"/>
		<edge from-layer="4289" from-port="0" to-layer="4290" to-port="1"/>
		<edge from-layer="4288" from-port="2" to-layer="4292" to-port="0"/>
		<edge from-layer="4291" from-port="0" to-layer="4293" to-port="0"/>
		<edge from-layer="4292" from-port="1" to-layer="4293" to-port="1"/>
		<edge from-layer="4293" from-port="2" to-layer="4295" to-port="0"/>
		<edge from-layer="4294" from-port="0" to-layer="4295" to-port="1"/>
		<edge from-layer="4290" from-port="2" to-layer="4296" to-port="0"/>
		<edge from-layer="4295" from-port="2" to-layer="4296" to-port="1"/>
		<edge from-layer="4296" from-port="2" to-layer="4298" to-port="0"/>
		<edge from-layer="4297" from-port="0" to-layer="4298" to-port="1"/>
		<edge from-layer="4298" from-port="2" to-layer="4300" to-port="0"/>
		<edge from-layer="4299" from-port="0" to-layer="4300" to-port="1"/>
		<edge from-layer="2881" from-port="4" to-layer="4303" to-port="0"/>
		<edge from-layer="4301" from-port="0" to-layer="4303" to-port="1"/>
		<edge from-layer="4302" from-port="0" to-layer="4303" to-port="2"/>
		<edge from-layer="4303" from-port="3" to-layer="4304" to-port="0"/>
		<edge from-layer="4304" from-port="1" to-layer="4306" to-port="0"/>
		<edge from-layer="4305" from-port="0" to-layer="4306" to-port="1"/>
		<edge from-layer="4298" from-port="2" to-layer="4307" to-port="0"/>
		<edge from-layer="4306" from-port="2" to-layer="4308" to-port="0"/>
		<edge from-layer="4307" from-port="1" to-layer="4308" to-port="1"/>
		<edge from-layer="4308" from-port="2" to-layer="4310" to-port="0"/>
		<edge from-layer="4309" from-port="0" to-layer="4310" to-port="1"/>
		<edge from-layer="4300" from-port="2" to-layer="4311" to-port="0"/>
		<edge from-layer="4310" from-port="2" to-layer="4311" to-port="1"/>
		<edge from-layer="4311" from-port="2" to-layer="4313" to-port="0"/>
		<edge from-layer="4312" from-port="0" to-layer="4313" to-port="1"/>
		<edge from-layer="4313" from-port="2" to-layer="4315" to-port="0"/>
		<edge from-layer="4314" from-port="0" to-layer="4315" to-port="1"/>
		<edge from-layer="4188" from-port="2" to-layer="4316" to-port="0"/>
		<edge from-layer="4255" from-port="2" to-layer="4316" to-port="1"/>
		<edge from-layer="4285" from-port="2" to-layer="4316" to-port="2"/>
		<edge from-layer="4315" from-port="2" to-layer="4316" to-port="3"/>
		<edge from-layer="4106" from-port="3" to-layer="4317" to-port="0"/>
		<edge from-layer="4316" from-port="4" to-layer="4318" to-port="0"/>
		<edge from-layer="4317" from-port="1" to-layer="4318" to-port="1"/>
		<edge from-layer="3026" from-port="2" to-layer="4319" to-port="0"/>
		<edge from-layer="3349" from-port="2" to-layer="4319" to-port="1"/>
		<edge from-layer="3672" from-port="2" to-layer="4319" to-port="2"/>
		<edge from-layer="3995" from-port="2" to-layer="4319" to-port="3"/>
		<edge from-layer="4318" from-port="2" to-layer="4319" to-port="4"/>
		<edge from-layer="4319" from-port="5" to-layer="4321" to-port="0"/>
		<edge from-layer="4320" from-port="0" to-layer="4321" to-port="1"/>
		<edge from-layer="2776" from-port="1" to-layer="4322" to-port="0"/>
		<edge from-layer="1177" from-port="1" to-layer="4324" to-port="0"/>
		<edge from-layer="4322" from-port="1" to-layer="4324" to-port="1"/>
		<edge from-layer="4323" from-port="0" to-layer="4324" to-port="2"/>
		<edge from-layer="3104" from-port="1" to-layer="4325" to-port="0"/>
		<edge from-layer="1513" from-port="1" to-layer="4327" to-port="0"/>
		<edge from-layer="4325" from-port="1" to-layer="4327" to-port="1"/>
		<edge from-layer="4326" from-port="0" to-layer="4327" to-port="2"/>
		<edge from-layer="3427" from-port="1" to-layer="4328" to-port="0"/>
		<edge from-layer="1849" from-port="1" to-layer="4330" to-port="0"/>
		<edge from-layer="4328" from-port="1" to-layer="4330" to-port="1"/>
		<edge from-layer="4329" from-port="0" to-layer="4330" to-port="2"/>
		<edge from-layer="3750" from-port="1" to-layer="4331" to-port="0"/>
		<edge from-layer="2185" from-port="1" to-layer="4333" to-port="0"/>
		<edge from-layer="4331" from-port="1" to-layer="4333" to-port="1"/>
		<edge from-layer="4332" from-port="0" to-layer="4333" to-port="2"/>
		<edge from-layer="4073" from-port="1" to-layer="4334" to-port="0"/>
		<edge from-layer="2521" from-port="1" to-layer="4336" to-port="0"/>
		<edge from-layer="4334" from-port="1" to-layer="4336" to-port="1"/>
		<edge from-layer="4335" from-port="0" to-layer="4336" to-port="2"/>
		<edge from-layer="4324" from-port="3" to-layer="4337" to-port="0"/>
		<edge from-layer="4327" from-port="3" to-layer="4337" to-port="1"/>
		<edge from-layer="4330" from-port="3" to-layer="4337" to-port="2"/>
		<edge from-layer="4333" from-port="3" to-layer="4337" to-port="3"/>
		<edge from-layer="4336" from-port="3" to-layer="4337" to-port="4"/>
		<edge from-layer="2776" from-port="1" to-layer="4338" to-port="0"/>
		<edge from-layer="1322" from-port="1" to-layer="4340" to-port="0"/>
		<edge from-layer="4338" from-port="1" to-layer="4340" to-port="1"/>
		<edge from-layer="4339" from-port="0" to-layer="4340" to-port="2"/>
		<edge from-layer="3104" from-port="1" to-layer="4341" to-port="0"/>
		<edge from-layer="1658" from-port="1" to-layer="4343" to-port="0"/>
		<edge from-layer="4341" from-port="1" to-layer="4343" to-port="1"/>
		<edge from-layer="4342" from-port="0" to-layer="4343" to-port="2"/>
		<edge from-layer="3427" from-port="1" to-layer="4344" to-port="0"/>
		<edge from-layer="1994" from-port="1" to-layer="4346" to-port="0"/>
		<edge from-layer="4344" from-port="1" to-layer="4346" to-port="1"/>
		<edge from-layer="4345" from-port="0" to-layer="4346" to-port="2"/>
		<edge from-layer="3750" from-port="1" to-layer="4347" to-port="0"/>
		<edge from-layer="2330" from-port="1" to-layer="4349" to-port="0"/>
		<edge from-layer="4347" from-port="1" to-layer="4349" to-port="1"/>
		<edge from-layer="4348" from-port="0" to-layer="4349" to-port="2"/>
		<edge from-layer="4073" from-port="1" to-layer="4350" to-port="0"/>
		<edge from-layer="2666" from-port="1" to-layer="4352" to-port="0"/>
		<edge from-layer="4350" from-port="1" to-layer="4352" to-port="1"/>
		<edge from-layer="4351" from-port="0" to-layer="4352" to-port="2"/>
		<edge from-layer="4340" from-port="3" to-layer="4353" to-port="0"/>
		<edge from-layer="4343" from-port="3" to-layer="4353" to-port="1"/>
		<edge from-layer="4346" from-port="3" to-layer="4353" to-port="2"/>
		<edge from-layer="4349" from-port="3" to-layer="4353" to-port="3"/>
		<edge from-layer="4352" from-port="3" to-layer="4353" to-port="4"/>
		<edge from-layer="4353" from-port="5" to-layer="4354" to-port="0"/>
		<edge from-layer="4354" from-port="1" to-layer="4357" to-port="0"/>
		<edge from-layer="4355" from-port="0" to-layer="4357" to-port="1"/>
		<edge from-layer="4356" from-port="0" to-layer="4357" to-port="2"/>
		<edge from-layer="4357" from-port="3" to-layer="4359" to-port="0"/>
		<edge from-layer="4358" from-port="0" to-layer="4359" to-port="1"/>
		<edge from-layer="4359" from-port="2" to-layer="4361" to-port="0"/>
		<edge from-layer="4360" from-port="0" to-layer="4361" to-port="1"/>
		<edge from-layer="4353" from-port="5" to-layer="4362" to-port="0"/>
		<edge from-layer="4361" from-port="2" to-layer="4362" to-port="1"/>
		<edge from-layer="4337" from-port="5" to-layer="4363" to-port="0"/>
		<edge from-layer="4362" from-port="2" to-layer="4364" to-port="0"/>
		<edge from-layer="4363" from-port="1" to-layer="4364" to-port="1"/>
		<edge from-layer="4337" from-port="5" to-layer="4365" to-port="0"/>
		<edge from-layer="4364" from-port="2" to-layer="4365" to-port="1"/>
		<edge from-layer="4365" from-port="2" to-layer="4366" to-port="0"/>
		<edge from-layer="4366" from-port="1" to-layer="4369" to-port="0"/>
		<edge from-layer="4367" from-port="0" to-layer="4369" to-port="1"/>
		<edge from-layer="4368" from-port="0" to-layer="4369" to-port="2"/>
		<edge from-layer="4369" from-port="3" to-layer="4371" to-port="0"/>
		<edge from-layer="4370" from-port="0" to-layer="4371" to-port="1"/>
		<edge from-layer="4365" from-port="2" to-layer="4372" to-port="0"/>
		<edge from-layer="4372" from-port="1" to-layer="4375" to-port="0"/>
		<edge from-layer="4373" from-port="0" to-layer="4375" to-port="1"/>
		<edge from-layer="4374" from-port="0" to-layer="4375" to-port="2"/>
		<edge from-layer="4375" from-port="3" to-layer="4377" to-port="0"/>
		<edge from-layer="4376" from-port="0" to-layer="4377" to-port="1"/>
		<edge from-layer="4371" from-port="2" to-layer="4379" to-port="0"/>
		<edge from-layer="4377" from-port="2" to-layer="4379" to-port="1"/>
		<edge from-layer="4378" from-port="0" to-layer="4379" to-port="2"/>
		<edge from-layer="4321" from-port="2" to-layer="4380" to-port="0"/>
		<edge from-layer="4379" from-port="3" to-layer="4380" to-port="1"/>
		<edge from-layer="4380" from-port="2" to-layer="4382" to-port="0"/>
		<edge from-layer="4381" from-port="0" to-layer="4382" to-port="1"/>
		<edge from-layer="4375" from-port="3" to-layer="4385" to-port="0"/>
		<edge from-layer="4384" from-port="0" to-layer="4385" to-port="1"/>
		<edge from-layer="4383" from-port="0" to-layer="4386" to-port="0"/>
		<edge from-layer="4385" from-port="2" to-layer="4386" to-port="1"/>
		<edge from-layer="4386" from-port="2" to-layer="4387" to-port="0"/>
		<edge from-layer="4387" from-port="1" to-layer="4389" to-port="0"/>
		<edge from-layer="4388" from-port="0" to-layer="4389" to-port="1"/>
		<edge from-layer="4389" from-port="2" to-layer="4391" to-port="0"/>
		<edge from-layer="4390" from-port="0" to-layer="4391" to-port="1"/>
		<edge from-layer="4391" from-port="2" to-layer="4393" to-port="0"/>
		<edge from-layer="4392" from-port="0" to-layer="4393" to-port="1"/>
		<edge from-layer="4365" from-port="2" to-layer="4394" to-port="0"/>
		<edge from-layer="4393" from-port="2" to-layer="4395" to-port="0"/>
		<edge from-layer="4394" from-port="1" to-layer="4395" to-port="1"/>
		<edge from-layer="4395" from-port="2" to-layer="4397" to-port="0"/>
		<edge from-layer="4396" from-port="0" to-layer="4397" to-port="1"/>
		<edge from-layer="4397" from-port="2" to-layer="4398" to-port="0"/>
		<edge from-layer="4382" from-port="2" to-layer="4400" to-port="0"/>
		<edge from-layer="4400" from-port="1" to-layer="4401" to-port="0"/>
		<edge from-layer="4401" from-port="1" to-layer="4403" to-port="0"/>
		<edge from-layer="4402" from-port="0" to-layer="4403" to-port="1"/>
		<edge from-layer="4399" from-port="0" to-layer="4405" to-port="0"/>
		<edge from-layer="4403" from-port="2" to-layer="4405" to-port="1"/>
		<edge from-layer="4404" from-port="0" to-layer="4405" to-port="2"/>
		<edge from-layer="4382" from-port="2" to-layer="4406" to-port="0"/>
		<edge from-layer="4405" from-port="3" to-layer="4406" to-port="1"/>
		<edge from-layer="4406" from-port="2" to-layer="4408" to-port="0"/>
		<edge from-layer="4407" from-port="0" to-layer="4408" to-port="1"/>
		<edge from-layer="4408" from-port="2" to-layer="4410" to-port="0"/>
		<edge from-layer="4409" from-port="0" to-layer="4410" to-port="1"/>
		<edge from-layer="4398" from-port="1" to-layer="4411" to-port="0"/>
		<edge from-layer="4410" from-port="2" to-layer="4411" to-port="1"/>
		<edge from-layer="4411" from-port="2" to-layer="4413" to-port="0"/>
		<edge from-layer="4412" from-port="0" to-layer="4413" to-port="1"/>
		<edge from-layer="4382" from-port="2" to-layer="4414" to-port="0"/>
		<edge from-layer="4413" from-port="2" to-layer="4414" to-port="1"/>
		<edge from-layer="4365" from-port="2" to-layer="4416" to-port="0"/>
		<edge from-layer="4415" from-port="0" to-layer="4416" to-port="1"/>
		<edge from-layer="4416" from-port="2" to-layer="4418" to-port="0"/>
		<edge from-layer="4417" from-port="0" to-layer="4418" to-port="1"/>
		<edge from-layer="4414" from-port="2" to-layer="4419" to-port="0"/>
		<edge from-layer="4418" from-port="2" to-layer="4419" to-port="1"/>
		<edge from-layer="4419" from-port="2" to-layer="4422" to-port="0"/>
		<edge from-layer="4420" from-port="0" to-layer="4422" to-port="1"/>
		<edge from-layer="4421" from-port="0" to-layer="4422" to-port="2"/>
		<edge from-layer="4422" from-port="4" to-layer="4424" to-port="0"/>
		<edge from-layer="4423" from-port="0" to-layer="4424" to-port="1"/>
		<edge from-layer="4424" from-port="2" to-layer="4426" to-port="0"/>
		<edge from-layer="4425" from-port="0" to-layer="4426" to-port="1"/>
		<edge from-layer="4422" from-port="3" to-layer="4428" to-port="0"/>
		<edge from-layer="4427" from-port="0" to-layer="4428" to-port="1"/>
		<edge from-layer="4428" from-port="2" to-layer="4432" to-port="0"/>
		<edge from-layer="4424" from-port="2" to-layer="4432" to-port="1"/>
		<edge from-layer="4429" from-port="0" to-layer="4432" to-port="2"/>
		<edge from-layer="4430" from-port="0" to-layer="4432" to-port="3"/>
		<edge from-layer="4431" from-port="0" to-layer="4432" to-port="4"/>
		<edge from-layer="4432" from-port="5" to-layer="4436" to-port="0"/>
		<edge from-layer="4433" from-port="0" to-layer="4436" to-port="1"/>
		<edge from-layer="4434" from-port="0" to-layer="4436" to-port="2"/>
		<edge from-layer="4435" from-port="0" to-layer="4436" to-port="3"/>
		<edge from-layer="4436" from-port="4" to-layer="4438" to-port="0"/>
		<edge from-layer="4437" from-port="0" to-layer="4438" to-port="1"/>
		<edge from-layer="4438" from-port="2" to-layer="4439" to-port="0"/>
		<edge from-layer="4426" from-port="2" to-layer="4441" to-port="0"/>
		<edge from-layer="4439" from-port="1" to-layer="4441" to-port="1"/>
		<edge from-layer="4440" from-port="0" to-layer="4441" to-port="2"/>
		<edge from-layer="4441" from-port="3" to-layer="4442" to-port="0"/>
		<edge from-layer="4442" from-port="1" to-layer="4445" to-port="0"/>
		<edge from-layer="4443" from-port="0" to-layer="4445" to-port="1"/>
		<edge from-layer="4444" from-port="0" to-layer="4445" to-port="2"/>
		<edge from-layer="4445" from-port="3" to-layer="4447" to-port="0"/>
		<edge from-layer="4446" from-port="0" to-layer="4447" to-port="1"/>
		<edge from-layer="4447" from-port="2" to-layer="4449" to-port="0"/>
		<edge from-layer="4448" from-port="0" to-layer="4449" to-port="1"/>
		<edge from-layer="4449" from-port="2" to-layer="4450" to-port="0"/>
		<edge from-layer="4441" from-port="3" to-layer="4451" to-port="0"/>
		<edge from-layer="4450" from-port="1" to-layer="4451" to-port="1"/>
		<edge from-layer="4451" from-port="2" to-layer="4452" to-port="0"/>
		<edge from-layer="4438" from-port="2" to-layer="4454" to-port="0"/>
		<edge from-layer="4451" from-port="3" to-layer="4454" to-port="1"/>
		<edge from-layer="4453" from-port="0" to-layer="4454" to-port="2"/>
		<edge from-layer="4454" from-port="3" to-layer="4455" to-port="0"/>
		<edge from-layer="4382" from-port="2" to-layer="4457" to-port="0"/>
		<edge from-layer="4455" from-port="1" to-layer="4457" to-port="1"/>
		<edge from-layer="4456" from-port="0" to-layer="4457" to-port="2"/>
		<edge from-layer="4454" from-port="3" to-layer="4458" to-port="0"/>
		<edge from-layer="4419" from-port="2" to-layer="4460" to-port="0"/>
		<edge from-layer="4458" from-port="1" to-layer="4460" to-port="1"/>
		<edge from-layer="4459" from-port="0" to-layer="4460" to-port="2"/>
		<edge from-layer="4460" from-port="3" to-layer="4464" to-port="0"/>
		<edge from-layer="4461" from-port="0" to-layer="4464" to-port="1"/>
		<edge from-layer="4462" from-port="0" to-layer="4464" to-port="2"/>
		<edge from-layer="4463" from-port="0" to-layer="4464" to-port="3"/>
		<edge from-layer="4464" from-port="4" to-layer="4466" to-port="0"/>
		<edge from-layer="4465" from-port="0" to-layer="4466" to-port="1"/>
		<edge from-layer="4466" from-port="2" to-layer="4468" to-port="0"/>
		<edge from-layer="4467" from-port="0" to-layer="4468" to-port="1"/>
		<edge from-layer="4457" from-port="3" to-layer="4469" to-port="0"/>
		<edge from-layer="4468" from-port="2" to-layer="4469" to-port="1"/>
		<edge from-layer="4454" from-port="3" to-layer="4470" to-port="0"/>
		<edge from-layer="4397" from-port="2" to-layer="4472" to-port="0"/>
		<edge from-layer="4470" from-port="1" to-layer="4472" to-port="1"/>
		<edge from-layer="4471" from-port="0" to-layer="4472" to-port="2"/>
		<edge from-layer="4472" from-port="3" to-layer="4473" to-port="0"/>
		<edge from-layer="4473" from-port="1" to-layer="4475" to-port="0"/>
		<edge from-layer="4474" from-port="0" to-layer="4475" to-port="1"/>
		<edge from-layer="4469" from-port="2" to-layer="4476" to-port="0"/>
		<edge from-layer="4475" from-port="2" to-layer="4476" to-port="1"/>
		<edge from-layer="4476" from-port="2" to-layer="4480" to-port="0"/>
		<edge from-layer="4477" from-port="0" to-layer="4480" to-port="1"/>
		<edge from-layer="4478" from-port="0" to-layer="4480" to-port="2"/>
		<edge from-layer="4479" from-port="0" to-layer="4480" to-port="3"/>
		<edge from-layer="4480" from-port="4" to-layer="4481" to-port="0"/>
		<edge from-layer="4476" from-port="2" to-layer="4484" to-port="0"/>
		<edge from-layer="4482" from-port="0" to-layer="4484" to-port="1"/>
		<edge from-layer="4483" from-port="0" to-layer="4484" to-port="2"/>
		<edge from-layer="4484" from-port="3" to-layer="4485" to-port="0"/>
		<edge from-layer="4485" from-port="1" to-layer="4487" to-port="0"/>
		<edge from-layer="4486" from-port="0" to-layer="4487" to-port="1"/>
		<edge from-layer="4487" from-port="2" to-layer="4488" to-port="0"/>
	</edges>
	<meta_data>
		<MO_version value="unknown version"/>
		<cli_parameters>
			<caffe_parser_path value="DIR"/>
			<data_type value="FP16"/>
			<disable_nhwc_to_nchw value="False"/>
			<disable_omitting_optional value="False"/>
			<disable_resnet_optimization value="False"/>
			<disable_weights_compression value="False"/>
			<enable_concat_optimization value="False"/>
			<enable_flattening_nested_params value="False"/>
			<enable_ssd_gluoncv value="False"/>
			<extensions value="DIR"/>
			<framework value="onnx"/>
			<freeze_placeholder_with_value value="{}"/>
			<generate_deprecated_IR_V7 value="False"/>
			<input value="image"/>
			<input_model value="DIR/model.onnx"/>
			<input_model_is_text value="False"/>
			<input_shape value="[1,3,480,864]"/>
			<k value="DIR/CustomLayersMapping.xml"/>
			<keep_shape_ops value="True"/>
			<legacy_mxnet_model value="False"/>
			<log_level value="ERROR"/>
			<mean_scale_values value="{'image': {'mean': None, 'scale': array([255.])}}"/>
			<mean_values value="()"/>
			<model_name value="person-detection-0203"/>
			<output value="['boxes', 'labels']"/>
			<output_dir value="DIR"/>
			<placeholder_data_types value="{}"/>
			<placeholder_shapes value="{'image': array([  1,   3, 480, 864])}"/>
			<progress value="False"/>
			<remove_memory value="False"/>
			<remove_output_softmax value="False"/>
			<reverse_input_channels value="True"/>
			<save_params_from_nd value="False"/>
			<scale_values value="image[255.0]"/>
			<silent value="False"/>
			<static_shape value="False"/>
			<stream_output value="False"/>
			<unset unset_cli_parameters="batch, counts, disable_fusing, disable_gfusing, finegrain_fusing, input_checkpoint, input_meta_graph, input_proto, input_symbol, mean_file, mean_file_offsets, move_to_preprocess, nd_prefix_name, pretrained_model_name, saved_model_dir, saved_model_tags, scale, tensorboard_logdir, tensorflow_custom_layer_libraries, tensorflow_custom_operations_config_update, tensorflow_object_detection_api_pipeline_config, tensorflow_use_custom_operations_config, transformations_config"/>
		</cli_parameters>
	</meta_data>
	<quantization_parameters>
		<config>{
		'compression': {
			'algorithms': [
				{
					'name': 'DefaultQuantization',
					'params': {
						'num_samples_for_tuning': 2000,
						'preset': 'performance',
						'stat_subset_size': 300,
						'use_layerwise_tuning': false
					}
				}
			],
			'dump_intermediate_model': true,
			'target_device': 'ANY'
		},
		'engine': {
			'models': [
				{
					'name': 'person-detection-0203',
					'launchers': [
						{
							'framework': 'dlsdk',
							'adapter': {
								'type': 'class_agnostic_detection',
								'scale': [
									0.0011574,
									0.0020833
								]
							},
							'device': 'CPU'
						}
					],
					'datasets': [
						{
							'name': 'crossroad_extra_untagged_person_hb',
							'data_source': 'PATH',
							'annotation_conversion': {
								'converter': 'mscoco_detection',
								'annotation_file': 'PATH',
								'has_background': true,
								'sort_annotations': true,
								'use_full_label_map': false
							},
							'annotation': 'crossroad_extra_untagged_person_hb.pickle',
							'dataset_meta': 'crossroad_extra_untagged_person_hb.json',
							'preprocessing': [
								{
									'type': 'resize',
									'dst_width': 864,
									'dst_height': 480
								}
							],
							'postprocessing': [
								{
									'type': 'resize_prediction_boxes'
								},
								{
									'type': 'cast_to_int'
								},
								{
									'type': 'nms',
									'overlap': 0.6
								},
								{
									'type': 'clip_boxes',
									'apply_to': 'prediction'
								}
							],
							'metrics': [
								{
									'type': 'coco_orig_precision'
								}
							],
							'_command_line_mapping': {
								'annotation_file': 'PATH'
							}
						}
					]
				}
			],
			'stat_requests_number': null,
			'eval_requests_number': null,
			'type': 'accuracy_checker'
		}
	}</config>
		<version value="1.0"/>
		<cli_params value="{'evaluate': False, 'output_dir': 'PATH', 'direct_dump': True, 'log_level': 'INFO', 'pbar': False, 'stream_output': False, 'keep_uncompressed_weights': False}"/>
	</quantization_parameters>
</net>
